bilstm_model.pth (torch, 345591 bytes, 10 tensors)

bilstm.weight_ih_l0 f4 [256, 100]
-0.13732624 -0.034696173 0.15480341 0.11223946 0.120457925 0.019619284 0.02536075 0.108298674
0.12184345 -0.054069962 0.0758168 -0.22491215 0.030417902 -0.069367126 0.16283326 0.028476207
0.04205163 -0.020752177 0.1267819 0.34512663 -0.1273781 -0.1966453 0.012739405 -0.093561046
-0.13275436 -0.106944636 0.0114442855 0.1861943 0.10867892 -0.025041169 -0.12535353 -0.15786418
-0.24115923 0.057757087 -0.043880932 0.13919355 -0.15204652 -0.07065318 0.1691489 -0.23104471
-0.0035074952 0.23922172 -0.0842264 0.051727433 0.1873915 -0.31475195 -0.17640404 0.037278015
-0.017090289 -0.019969959 -0.25106394 0.058181286 -0.2625514 -0.019957835 -0.16928408 -0.12482576
-0.09837131 -0.2105963 0.036364842 0.012639534 0.054190677 0.09781489 -0.017202038 -0.060156178
-0.1310136 -0.11620349 0.041410424 -0.2811515 0.091517374 -0.058805086 -0.23394802 -0.07334227
0.18039301 -0.41821903 0.3171402 -0.07835111 -0.30216962 0.103584535 0.0036169346 0.008030884
-0.17280813 0.0074720643 0.19968578 0.049232867 0.3548919 0.16119343 -0.17894055 -0.052899975
0.01996455 0.06853822 -0.14647269 0.16338795 -0.28860763 0.008978569 0.04146599 -0.0006326763
0.22418573 -0.041005276 -0.01911412 0.0691321 0.16508032 -0.3205982 -0.39157486 -0.30727977
0.041256856 -0.096871346 -0.1854284 0.0061010187 0.11192085 -0.090511486 -0.024161326 0.15541159
0.28321806 -0.088470355 0.18799569 0.023228813 -0.13472567 0.09364239 0.014592565 -0.30437765
-0.2998509 -0.01316605 0.5896625 -0.21135814 -0.05923943 0.06970416 0.0063076047 -0.37699258
-0.07163978 0.06626155 0.030882679 0.54695225 -0.539555 0.31476408 0.1560156 -0.08098553
-0.27552196 0.22501603 -0.06697894 -0.082705416 0.19618163 0.4076881 -0.08778302 0.3134374
-0.053564083 -0.20183626 -0.26132017 -0.26612353 -0.060863942 0.21402696 0.21503042 -0.03821223
-0.016855627 0.14241268 0.049561273 0.061037168 -0.027554866 0.40121683 -0.28668994 -0.05626664
0.077806264 0.015440616 0.29535496 -0.0014201824 -0.45559782 -0.06282478 -0.01795847 0.104059085
0.058376193 -0.42798162 -0.04144387 0.08708662 0.013373264 0.16710384 -0.052388363 0.27735248
-0.12126114 -0.3340679 0.38402897 0.13269597 -0.19401856 0.12986025 0.16384017 -0.055305995
0.109738216 0.118480586 -0.006897932 -0.048807394 0.15594852 -0.22212851 0.38603443 -0.14575459
0.02395348 -0.015627192 -0.04346708 0.1463167 0.044843446 -0.17044528 0.06948382 -0.21923284
-0.108907856 -0.037144765 -0.18586694 -0.05505215 -0.053134076 -0.33515197 -0.012989034 -0.4282383
0.1114273 -0.040708747 -0.09532407 0.10047641 0.19656762 0.010270018 0.45064247 -0.031547252
0.12441733 0.016434189 -0.14189781 -0.15090008 0.1435753 0.26750946 -0.08052341 -0.2071899
-0.12694357 -0.25135663 0.1432276 -0.1624041 0.087742105 0.04324665 -0.115561 0.16920848
-0.007872242 0.0035915633 0.078392684 0.17280044 -0.20353457 0.064990275 0.048409645 0.20870169
0.11893252 -0.47035235 -0.12834519 0.26492628 0.104327165 -0.02321407 0.21122895 0.016911216
-0.047775626 -0.06666339 0.25471678 0.10235278 -0.04337816 -0.35548434 -0.24133669 -0.111023076
00000000: 409f 0cbe 931d 0ebd c984 1e3e cddd e53d
00000010: a5b2 f63d 9fb8 a03c 59c1 cf3c b2cb dd3d
00000020: 0f89 f93d 7778 5dbd d745 9b3d 5f4f 66be
00000030: f72e f93c 5a10 8ebd c3bd 263e ef46 e93c
00000040: 543e 2c3d 7800 aabc 1dd3 013e 70b4 b03e
00000050: 686f 02be 635d 49be f0b8 503c ef9c bfbd
00000060: c2f0 07be ca05 dbbd d080 3b3c b8a9 3e3e
00000070: 0e93 de3d 2323 cdbc ad5c 00be 26a7 21be
00000080: 72f2 76be b292 6c3d 7ebc 33bd c188 0e3e
00000090: 15b2 1bbe 9db2 90bd 5f35 2d3e fc96 6cbe
000000a0: 01de 65bb 8af6 743e e47e acbd 25e0 533d
000000b0: 8fe3 3f3e 2b27 a1be 43a3 34be d5b0 183d
000000c0: ef00 8cbc 0a98 a3bc 748b 80be 804f 6e3d
000000d0: 236d 86be 9d7e a3bc ce58 2dbe a6a4 ffbd
000000e0: e676 c9bd 8ea6 57be 4df3 143d 0c16 4f3c
000000f0: 0bf7 5d3d 2c53 c83d 4aeb 8cbc 5366 76bd
00000100: 6e28 06be 18fc edbd fa9d 293d 17f3 8fbe
00000110: 766d bb3d 9add 70bd 1290 6fbe 7934 96bd
00000120: f2b8 383e ce20 d6be 3360 a23e 8c76 a0bd
00000130: fab5 9abe 2124 d43d 180a 6d3b f893 033c
00000140: 9df4 30be 38d8 f43b 6e7a 4c3e 67a8 493d
00000150: 64b4 b53e e40f 253e 313c 37be a5ad 58bd
00000160: b28c a33c c45d 8c3d f0fc 15be 2c4f 273e
00000170: 61c4 93be d91a 133c 3ed8 293d 30da 25ba
00000180: f290 653e 26f5 27bd 3795 9cbc 2195 8d3d
00000190: d10a 293e 7325 a4be 807c c8be c653 9dbe
000001a0: f3fc 283d 7c64 c6bd f1e0 3dbe 0eeb c73b
000001b0: c236 e53d 165e b9bd f9ed c5bc 3724 1f3e
000001c0: f501 913e f22f b5bd f181 403e 5a4a be3c
000001d0: 87f5 09be 95c7 bf3d a715 6f3c 63d7 9bbe
000001e0: 0f86 99be 6bb6 57bc 1ff4 163f 456e 58be
000001f0: 0ba5 72bd 0ec1 8e3d 06b0 ce3b 2c05 c1be
00000200: e1b7 92bd 23b4 873d acfd fc3c 1005 0c3f
00000210: 4720 0abf c228 a13e 8ec2 1f3e bedb a5bd
00000220: 3711 8dbe 9a6a 663e 412c 89bd 7561 a9bd
00000230: d6e3 483e 7fbc d03e 96c7 b3bd de7a a03e
00000240: 0366 5bbd 2aae 4ebe c2cb 85be 5841 88be
00000250: 784c 79bd e229 5b3e ef30 5c3e 6d84 1cbd
00000260: d014 8abc a1d4 113e c300 4b3d 1c02 7a3d
00000270: beba e1bc 4b6c cd3e 06c9 92be d977 66bd
00000280: e458 9f3d a3fa 7c3c c438 973e 6a25 baba
00000290: 1e44 e9be 47aa 80bd a41d 93bc ee1c d53d
000002a0: e01b 6f3d 6820 dbbe 0cc1 29bd 785a b23d
000002b0: 891b 5b3c 451d 2b3e 2e95 56bd 2501 8e3e
000002c0: c357 f8bd f30a abbe 729f c43e 74e1 073e
000002d0: cdac 46be 16fa 043e b8c5 273e 8a88 62bd
000002e0: 6ebe e03d f3a5 f23d 0c08 e2bb 43ea 47bd
000002f0: f8b0 1f3e a875 63be 4ea6 c53e b140 15be
00000300: 173a c43c 9904 80bc 890a 32bd 0cd4 153e
00000310: c3ad 373d 3589 2ebe 884d 8e3d 937e 60be
00000320: 150b dfbd 1c25 18bd e753 3ebe 5d7e 61bd
00000330: 1ea3 59bd 0a99 abbe f5cf 54bc 0d42 dbbe
00000340: ff33 e43d 37be 26bd 4439 c3bd 93c6 cd3d
00000350: 0649 493e 9443 283c 9cba e63e b137 01bd
00000360: 83ce fe3d fea0 863c a94d 11be 8d85 1abe
00000370: 6705 133e 00f7 883e 75e9 a4bd 9729 54be
00000380: 7ffd 01be d1b1 80be 42aa 123e 434d 26be
00000390: 22b2 b33d 6623 313d 3fab ecbd fd44 2d3e
000003a0: 93fa 00bc 6f60 6b3b 588c a03d 99f2 303e
000003b0: 5e6b 50be 9f19 853d 3149 463d e5b5 553e
000003c0: e592 f33d 06d2 f0be ec6c 03be 6ba4 873e
000003d0: 7ba9 d53d 6f2b bebc 674c 583e 6489 8a3c
000003e0: 60b0 43bd d186 88bd 3d6a 823e 569e d13d
000003f0: 4cad 31bd 0b02 b6be f720 77be 1160 e3bd

bilstm.weight_hh_l0 f4 [256, 64]
0.15765716 -0.02147533 -0.13859469 -0.08789531 -0.053434547 0.0100311665 -0.008549959 -0.04694519
-0.09174743 -0.08678646 -0.004298269 0.071777456 0.22819166 0.06801374 0.10217919 0.06491578
0.16236153 -0.014289933 -0.076567665 -0.049040645 0.14959799 -0.17805657 -0.0680661 0.013482217
-0.08206802 0.0033739835 0.0737959 0.029200414 -0.053853903 0.064679496 0.08152103 0.003148151
0.06767461 -0.097009115 -0.013645448 -0.08141553 -0.13369286 0.026732998 -0.011326233 -0.018218879
0.10750912 0.017467678 0.10031378 -0.011063618 -0.0480346 0.12344912 0.030583026 0.18450546
0.04897982 -0.21421394 0.08761603 -0.0027441063 0.12184043 -0.086017594 0.08283165 0.0654933
0.04614235 0.119927734 -0.01662492 0.1211429 0.015350793 -0.07456104 0.08290717 0.19380356
-0.022055997 0.015495131 0.16936757 -0.03455853 -0.08198528 0.15330386 -0.0842454 -0.0684411
-0.044775676 -0.17845592 -0.067611575 -0.18635128 -0.03168002 -0.1322577 0.040397026 0.11396672
-0.08231075 0.048163995 -0.19193736 0.029077582 -0.17668971 0.2568766 0.30498025 0.0127946045
-0.18127015 -0.030647857 0.120814584 0.11804763 0.1445419 0.035528257 0.06740669 -0.1488996
0.19016437 -0.14669889 0.08105958 0.0664856 0.03704793 0.09543246 -0.03894275 -0.071498774
-0.061368674 0.056875195 0.101361506 0.040219292 0.10691475 0.07205331 0.06734751 0.010583012
-0.019945672 0.13983782 -0.07580546 0.012004146 0.11197568 -0.115549475 0.09663894 -0.03349317
0.07873347 -0.12643376 0.099117376 0.03689516 0.102727495 -0.025501357 0.2381959 0.10616067
-0.10747605 -0.14566281 0.028798673 0.02119329 0.021840213 -0.018866062 -0.0813216 -0.05535673
-0.05605152 -0.0986835 -0.10205299 -0.1306696 0.043743197 0.023083458 -0.013708846 -0.0017958458
0.15422627 -0.12738895 -0.095964305 0.13441995 -0.15957786 0.20894137 0.11309286 -0.015085036
-0.07371275 0.017924843 0.10714802 -0.20092084 0.0020529337 0.04757755 -0.0653504 -0.027074032
0.0037045272 -0.098756805 0.05215546 0.12522127 -0.0057421746 0.03346832 0.07098056 -0.11046618
0.02593082 -0.023025883 -0.028945262 -0.033358496 0.23621252 -0.065276675 0.20731373 -0.06664454
0.1548056 -0.14819212 0.15365015 0.1030595 0.03626057 -0.04506323 0.02642728 0.08143332
0.23048745 0.028378086 0.049255215 0.093701094 0.18472154 0.1456682 0.14991151 0.18158315
0.030989114 0.043782394 0.056047294 0.028785134 0.07231375 0.05206247 0.012077771 -0.03323566
-0.06354247 -0.017097946 0.1178443 0.03564602 0.07462797 0.005959569 -0.016884495 0.008311932
0.08006179 -0.018813087 -0.05442587 -0.06442998 -0.15319423 0.10060724 0.2538052 -0.02641493
-0.05656142 0.13695425 0.123408705 0.15601547 0.029220035 -0.063945085 0.04687238 0.003877057
0.07529741 0.058080357 0.014900822 0.029374352 0.06398462 -0.011559201 0.011038156 -0.07297964
0.15507804 -0.017560175 0.022153918 -0.022559382 0.062265486 0.16246529 0.043744646 -0.03938748
0.1710556 0.049441904 0.05550579 0.025804713 -0.10641111 0.0029502558 -0.045771305 -0.11775527
-0.0013299157 -0.15088183 0.1484056 0.12838657 -0.00064411975 0.2833157 -0.10041756 -0.009235713
00000000: e170 213e 08ed afbc c4eb 0dbe 7502 b4bd
00000010: 2fde 5abd c359 243c 2115 0cbc 9949 40bd
00000020: 14e6 bbbd 19bd b1bd 7ed8 8cbb 0f00 933d
00000030: 13ab 693e ca4a 8b3d 5343 d13d 91f2 843d
00000040: 1a42 263e 5320 6abc 82cf 9cbd d8de 48bd
00000050: 3730 193e 7654 36be 3d66 8bbd 84e4 5c3c
00000060: 4713 a8bd 0d1e 5d3b 4e22 973d b535 ef3c
00000070: e995 5cbd af76 843d 7ff4 a63d 3651 4e3b
00000080: fc98 8a3d b7ac c6bd 2891 5fbc 2fbd a6bd
00000090: c8e6 08be 29ff da3c aa91 39bc c23f 95bc
000000a0: be2d dc3d 6018 8f3c 5071 cd3d 2d44 35bc
000000b0: eebf 44bd e4d2 fc3d 4189 fa3c 00ef 3c3e
000000c0: 109f 483d e65a 5bbe 0870 b33d 77d6 33bb
000000d0: 7a87 f93d fe29 b0bd a4a3 a93d 5a21 863d
000000e0: c3ff 3c3d ac9c f53d fc30 88bc c519 f83d
000000f0: e481 7b3c 75b3 98bd 3ccb a93d 7174 463e
00000100: c7ae b4bc 4adf 7d3c b16e 2d3e 3f8d 0dbd
00000110: e6e7 a7bd b0fb 1c3e da88 acbd d92a 8cbd
00000120: b366 37bd 26bd 36be f077 8abd dfd2 3ebe
00000130: e9c2 01bd 906e 07be 5a77 253d 6267 e93d
00000140: 8a92 a8bd 9c47 453d 3a8b 44be 1c34 ee3c
00000150: 26ee 34be 5485 833e 5f26 9c3e 76a0 513c
00000160: e29e 39be 3711 fbbc a36d f73d f5c2 f13d
00000170: cb02 143e 1486 113d 850c 8a3d 2379 18be
00000180: 73ba 423e 3c38 16be 9102 a63d 9a29 883d
00000190: 92bf 173d 1872 c33d 6f82 1fbd f36d 92bd
000001a0: b85d 7bbd f7f5 683d 9f96 cf3d fcbc 243d
000001b0: 1ff6 da3d b090 933d 7eed 893d 5f64 2d3c
000001c0: 1b65 a3bc a531 0f3e e53f 9bbd 0aad 443c
000001d0: 8153 e53d 34a5 ecbd a3ea c53d 2230 09bd
000001e0: 033f a13d da77 01be 0dfe ca3d 611f 173d
000001f0: cb62 d23d 39e8 d0bc a0e9 733e c46a d93d
00000200: 671c dcbd a228 15be 32eb eb3c 8d9d ad3c
00000210: 3fea b23c 008d 9abc f08b a6bd bdbd 62bd
00000220: 4796 65bd 931a cabd 2801 d1bd 40ce 05be
00000230: 112c 333d 8519 bd3c 119b 60bc 9662 ebba
00000240: 7eed 1d3e 4072 02be ef88 c4bd 62a5 093e
00000250: 6168 23be baf4 553e 3b9d e73d 3a27 77bc
00000260: b6f6 96bd 1fd7 923c 6c70 db3d 31be 4dbe
00000270: 838a 063b ade0 423d 6ed6 85bd 5cca ddbc
00000280: a7c7 723b 0241 cabd f7a0 553d 013a 003e
00000290: da28 bcbb 1416 093d 415e 913d 183c e2bd
000002a0: df6c d43c c7a0 bcbc 9d1e edbc eba2 08bd
000002b0: b2e1 713e c7af 85bd 0d4a 543e ef7c 88bd
000002c0: 5c85 1e3e adbf 17be 7756 1d3e dc10 d33d
000002d0: f785 143d 3994 38bd 067e d83c 83c6 a63d
000002e0: e704 6c3e 2979 e83c d6bf 493d 5ce6 bf3d
000002f0: a527 3d3e 0b2a 153e 6782 193e eff0 393e
00000300: e2dc fd3c 2b55 333d d991 653d cdce eb3c
00000310: 3b19 943d 753f 553d d8e1 453c 1e22 08bd
00000320: 8e22 82bd fe10 8cbc 5a58 f13d 9001 123d
00000330: 8dd6 983d 7d48 c33b 5a51 8abc c52e 083c
00000340: 70f7 a33d e71d 9abc a9ed 5ebd def3 83bd
00000350: f3de 1cbe 2b0b ce3d c1f2 813e 2064 d8bc
00000360: f3ac 67bd bc3d 0c3e b4bd fc3d 85c2 1f3e
00000370: db5e ef3c a4f5 82bd 41fd 3f3d 3916 7e3b
00000380: 8735 9a3d abe5 6d3d 9422 743c 7ba2 f03c
00000390: 5e0a 833d ce62 3dbc 62d9 343c 5976 95bd
000003a0: c7cc 1e3e 5bda 8fbc 227c b53c 74ce b8bc
000003b0: 180a 7f3d 4d5d 263e 962d 333d c454 21bd
000003c0: 3329 2f3e 9883 4a3d 0a5a 633d 6864 d33c
000003d0: 11ee d9bd 1459 413b b17a 3bbd ad29 f1bd
000003e0: 9150 aeba c480 1abe a3f7 173e c577 033e
000003f0: 25da 28ba c10e 913e b9a7 cdbd 6351 17bc

bilstm.bias_ih_l0 f4 [256]
-0.043652758 -0.010047958 -0.0784107 -0.0711551 -0.025627287 -0.047423318 -0.03607456 -0.0063812356
-0.234486 -0.028437827 -0.032720443 -0.105649866 -0.10156273 0.022223042 -0.02694 0.020245718
-0.048433557 -0.08173347 -0.034756485 -0.019349921 -0.14851144 0.048325945 -0.0049952306 -0.02933531
0.024369178 -0.06917303 -0.012857192 -0.05052461 -0.09725981 -0.16879259 -0.02350701 -0.017625015
-0.10029109 0.0061582145 -0.008135206 -0.0070462287 0.03920617 -0.0129317455 -0.042942032 0.06929699
-0.044755116 -0.06510959 -0.07257038 -0.019765994 -0.032841116 -0.005583696 -0.070094645 0.0029850826
-0.101568356 -0.053008385 -0.096354 -0.033490337 0.021188654 -0.081332386 -0.042492926 -0.030795764
-0.03769322 -0.081926286 -0.04218125 -0.11422589 -0.08181432 -0.04629617 -0.08817085 -0.056553513
0.140957 0.17403236 0.20146528 0.05876576 0.1500986 0.1065249 0.042531565 0.10604138
0.09047585 0.19864644 0.10374127 0.28378713 0.13414139 0.17161897 0.120502256 0.1378002
0.15351388 0.09185414 0.1789437 0.08350505 0.10596196 0.114987165 0.11467689 0.08052791
0.09451527 0.16115019 0.16980721 0.21135066 0.34914318 0.09969461 0.2081919 0.124700725
0.1755741 0.08576726 0.079418905 0.13293155 0.19740173 0.12718919 0.12483756 0.21150167
0.04532171 0.11129325 0.18183692 0.11313252 0.10043922 0.16164553 0.21286117 0.24853621
0.12207571 0.24919677 0.16729882 0.1828262 0.06917985 0.10624205 0.12837176 0.052570473
0.11486159 0.25317782 0.2474483 0.11204793 0.24788596 0.056217752 0.04043137 0.14688809
-0.0131663475 0.02806644 0.009199749 -0.03514875 -0.005995227 0.010987819 0.01834583 0.010893819
-0.06588675 0.033685274 0.013534648 -0.03173122 -0.028574398 -0.045022868 -0.017011961 -0.02077477
-0.0064853076 0.005777317 0.024653181 0.006830965 0.0049346746 -0.020464102 -0.0136004565 -0.00047840615
0.028289158 0.0009849218 0.0069832 -0.005487885 -0.032081433 0.036807936 0.025839258 0.030211821
-0.02833353 0.006634138 -0.037895378 -0.011861481 -0.034591842 0.02202916 0.046506003 -0.004960414
-0.016165163 -0.003776854 -0.02154756 0.019643702 0.0012063314 -0.019967547 -0.00527467 0.02784682
-0.019311246 0.009804303 -0.0060048914 0.009780488 -0.0007154583 0.04363855 0.008443615 0.028140193
0.003594132 0.02621778 -0.011876697 -0.021608606 -0.020746453 0.043112483 -0.015123121 -0.014213017
0.0167192 0.07220901 0.0884645 -0.032898698 0.043550555 0.08287411 -0.007143139 0.046005264
0.006875208 0.06915221 0.026914414 0.07583685 0.022378957 0.06984962 0.03656542 0.04192375
0.022356737 0.043232076 0.053151157 0.009709741 0.03049886 0.0838001 0.04268817 0.02863301
0.033882156 0.0795831 0.053755585 0.059502948 0.1887636 0.06291755 0.032533668 0.017259233
0.036582887 0.085242145 0.003974296 0.05394039 0.088523306 0.0136513645 0.049938012 0.12064782
-0.015009047 0.06557979 0.030016253 0.027662758 0.04731947 0.03007397 0.04282019 0.110344246
0.040962502 0.08725764 0.036372717 0.052420195 0.050323408 0.00467988 0.01662518 -0.006950829
0.04289783 0.07667237 0.05967614 0.027503636 0.1133726 0.037756845 -0.00033755912 0.02501587
00000000: 3ccd 32bd 31a0 24bc ca95 a0bd c4b9 91bd
00000010: 51f0 d1bc f43e 42bd ebc2 13bd af19 d1bb
00000020: 191d 70be 72f6 e8bc df05 06bd f55e d8bd
00000030: 1f00 d0bd 190d b63c 46b1 dcbc 59da a53c
00000040: 4462 46bd e163 a7bd d15c 0ebd ba83 9ebc
00000050: 6213 18be 6df1 453d 08af a3bb 9b50 f0bc
00000060: dfa1 c73c 97aa 8dbd f9a6 52bc e5f2 4ebd
00000070: 2730 c7bd f7d7 2cbe c691 c0bc 5662 90bc
00000080: 6a65 cdbd d9ca c93b 8749 05bc 0de4 e6bb
00000090: a696 203d acdf 53bc fce3 2fbd 95eb 8d3d
000000a0: 2451 37bd 2d58 85bd c89f 94bd 4bec a1bc
000000b0: 6884 06bd 70f7 b6bb c88d 8fbd 60a1 433b
000000c0: 1203 d0bd 521f 59bd 3f55 c5bd 2a2d 09bd
000000d0: d493 ad3c 9891 a6bd 100d 2ebd 6647 fcbc
000000e0: 3564 1abd f8c8 a7bd 3fc6 2cbd 43ef e9bd
000000f0: 448e a7bd 0ea1 3dbd eb92 b4bd a8a4 67bd
00000100: 0857 103e 8a35 323e ea4c 4e3e 5eb4 703d
00000110: 73b3 193e ba29 da3d 9435 2e3d 392c d93d
00000120: 674b b93d f969 4b3e 4e76 d43d 8c4c 913e
00000130: 5c5c 093e e2bc 2f3e e3c9 f63d 7f1b 0d3e
00000140: be32 1d3e 061e bc3d 043d 373e b204 ab3d
00000150: 9602 d93d 647e eb3d b8db ea3d d1eb a43d
00000160: 3991 c13d 8e04 253e f1e1 2d3e 4f6c 583e
00000170: e5c2 b23e b02c cc3d 4230 553e 1863 ff3d
00000180: b2c9 333e bfa6 af3d 61a6 a23d 351f 083e
00000190: ae23 4a3e e23d 023e d6aa ff3d e593 583e
000001a0: 42a3 393d b7ed e33d 7533 3a3e 06b2 e73d
000001b0: 14b3 cd3d 6886 253e 47f8 593e 4780 7e3e
000001c0: d402 fa3d 702d 7f3e 6250 2b3e cb36 3b3e
000001d0: 2aae 8d3d 6f95 d93d e373 033e 2354 573d
000001e0: 8e3c eb3d 86a0 813e 1663 7d3e 6379 e53d
000001f0: d1d5 7d3e 9644 663d 5d9b 253d d569 163e
00000200: aab7 57bc 97eb e53c 8bba 163c 23f8 0fbd
00000210: 9c73 c4bb 4106 343c fe49 963c fd7b 323c
00000220: a2ef 86bd 92f9 093d 6ec0 5d3c 99f8 01bd
00000230: db14 eabc e669 38bd ab5c 8bbc da2f aabc
00000240: b482 d4bb a64f bd3b 78f5 c93c 4ad6 df3b
00000250: 0db3 a13b 55a4 a7bc 73d4 5ebc 96d2 fab9
00000260: aabe e73c 7e18 813a 54d3 e43b b7d3 b3bb
00000270: d267 03bd ebc3 163d daac d33c c87e f73c
00000280: b81b e8bc 2f63 d93b 2f38 1bbd a856 42bc
00000290: 2db0 0dbd 7f76 b43c 147d 3e3d f88a a2bb
000002a0: ce6c 84bc 1885 77bb 8284 b0bc d4eb a03c
000002b0: c41d 9e3a fb92 a3bc 24d7 acbb 041f e43c
000002c0: 9e32 9ebc 3aa2 203c aec4 c4bb 573e 203c
000002d0: 988d 3bba 56be 323d 1757 0a3c 4386 e63c
000002e0: 878b 6b3b abc6 d63c 7a96 42bc 8804 b1bc
000002f0: 77f4 a9bc b796 303d f8c6 77bc b7dd 68bc
00000300: b4f6 883c 51e2 933d e02c b53d c9c0 06bd
00000310: 1162 323d e7b9 a93d fe10 eabb 0470 3c3d
00000320: 6d49 e13b ad9f 8d3d 9e7b dc3c 5a50 9b3d
00000330: 1354 b73c 510d 8f3d 9fc5 153d 3db8 2b3d
00000340: 7a25 b73c 1e14 313d 07b5 593d 9b15 1f3c
00000350: bfd8 f93c 639f ab3d cad9 2e3d c68f ea3c
00000360: 04c8 0a3d 77fc a23d d12e 5c3d 5db9 733d
00000370: 3f4b 413e ebda 803d 0642 053d 3c63 8d3c
00000380: f0d7 153d 6f93 ae3d d03a 823b 99f0 5c3d
00000390: b54b b53d f9a9 5f3c cd8b 4c3d 3416 f73d
000003a0: 82e8 75bc b24e 863d a5e4 f53c 029d e23c
000003b0: 10d2 413d b05d f63c 3964 2f3d 2afc e13d
000003c0: 4cc8 273d 22b4 b23d 8ffb 143d 8fb6 563d
000003d0: eb1f 4e3d ae59 993b 8831 883c c8c3 e3bb
000003e0: a3b5 2f3d 6706 9d3d f86e 743d 4e4f e13c
000003f0: e52f e83d eca6 1a3d 6bfa b0b9 15ee cc3c

bilstm.bias_hh_l0 f4 [256]
-0.043652758 -0.010047958 -0.0784107 -0.0711551 -0.025627287 -0.047423318 -0.03607456 -0.0063812356
-0.234486 -0.028437827 -0.032720443 -0.105649866 -0.10156273 0.022223042 -0.02694 0.020245718
-0.048433557 -0.08173347 -0.034756485 -0.019349921 -0.14851144 0.048325945 -0.0049952306 -0.02933531
0.024369178 -0.06917303 -0.012857192 -0.05052461 -0.09725981 -0.16879259 -0.02350701 -0.017625015
-0.10029109 0.0061582145 -0.008135206 -0.0070462287 0.03920617 -0.0129317455 -0.042942032 0.06929699
-0.044755116 -0.06510959 -0.07257038 -0.019765994 -0.032841116 -0.005583696 -0.070094645 0.0029850826
-0.101568356 -0.053008385 -0.096354 -0.033490337 0.021188654 -0.081332386 -0.042492926 -0.030795764
-0.03769322 -0.081926286 -0.04218125 -0.11422589 -0.08181432 -0.04629617 -0.08817085 -0.056553513
0.140957 0.17403236 0.20146528 0.05876576 0.1500986 0.1065249 0.042531565 0.10604138
0.09047585 0.19864644 0.10374127 0.28378713 0.13414139 0.17161897 0.120502256 0.1378002
0.15351388 0.09185414 0.1789437 0.08350505 0.10596196 0.114987165 0.11467689 0.08052791
0.09451527 0.16115019 0.16980721 0.21135066 0.34914318 0.09969461 0.2081919 0.124700725
0.1755741 0.08576726 0.079418905 0.13293155 0.19740173 0.12718919 0.12483756 0.21150167
0.04532171 0.11129325 0.18183692 0.11313252 0.10043922 0.16164553 0.21286117 0.24853621
0.12207571 0.24919677 0.16729882 0.1828262 0.06917985 0.10624205 0.12837176 0.052570473
0.11486159 0.25317782 0.2474483 0.11204793 0.24788596 0.056217752 0.04043137 0.14688809
-0.0131663475 0.02806644 0.009199749 -0.03514875 -0.005995227 0.010987819 0.01834583 0.010893819
-0.06588675 0.033685274 0.013534648 -0.03173122 -0.028574398 -0.045022868 -0.017011961 -0.02077477
-0.0064853076 0.005777317 0.024653181 0.006830965 0.0049346746 -0.020464102 -0.0136004565 -0.00047840615
0.028289158 0.0009849218 0.0069832 -0.005487885 -0.032081433 0.036807936 0.025839258 0.030211821
-0.02833353 0.006634138 -0.037895378 -0.011861481 -0.034591842 0.02202916 0.046506003 -0.004960414
-0.016165163 -0.003776854 -0.02154756 0.019643702 0.0012063314 -0.019967547 -0.00527467 0.02784682
-0.019311246 0.009804303 -0.0060048914 0.009780488 -0.0007154583 0.04363855 0.008443615 0.028140193
0.003594132 0.02621778 -0.011876697 -0.021608606 -0.020746453 0.043112483 -0.015123121 -0.014213017
0.0167192 0.07220901 0.0884645 -0.032898698 0.043550555 0.08287411 -0.007143139 0.046005264
0.006875208 0.06915221 0.026914414 0.07583685 0.022378957 0.06984962 0.03656542 0.04192375
0.022356737 0.043232076 0.053151157 0.009709741 0.03049886 0.0838001 0.04268817 0.02863301
0.033882156 0.0795831 0.053755585 0.059502948 0.1887636 0.06291755 0.032533668 0.017259233
0.036582887 0.085242145 0.003974296 0.05394039 0.088523306 0.0136513645 0.049938012 0.12064782
-0.015009047 0.06557979 0.030016253 0.027662758 0.04731947 0.03007397 0.04282019 0.110344246
0.040962502 0.08725764 0.036372717 0.052420195 0.050323408 0.00467988 0.01662518 -0.006950829
0.04289783 0.07667237 0.05967614 0.027503636 0.1133726 0.037756845 -0.00033755912 0.02501587
00000000: 3ccd 32bd 31a0 24bc ca95 a0bd c4b9 91bd
00000010: 51f0 d1bc f43e 42bd ebc2 13bd af19 d1bb
00000020: 191d 70be 72f6 e8bc df05 06bd f55e d8bd
00000030: 1f00 d0bd 190d b63c 46b1 dcbc 59da a53c
00000040: 4462 46bd e163 a7bd d15c 0ebd ba83 9ebc
00000050: 6213 18be 6df1 453d 08af a3bb 9b50 f0bc
00000060: dfa1 c73c 97aa 8dbd f9a6 52bc e5f2 4ebd
00000070: 2730 c7bd f7d7 2cbe c691 c0bc 5662 90bc
00000080: 6a65 cdbd d9ca c93b 8749 05bc 0de4 e6bb
00000090: a696 203d acdf 53bc fce3 2fbd 95eb 8d3d
000000a0: 2451 37bd 2d58 85bd c89f 94bd 4bec a1bc
000000b0: 6884 06bd 70f7 b6bb c88d 8fbd 60a1 433b
000000c0: 1203 d0bd 521f 59bd 3f55 c5bd 2a2d 09bd
000000d0: d493 ad3c 9891 a6bd 100d 2ebd 6647 fcbc
000000e0: 3564 1abd f8c8 a7bd 3fc6 2cbd 43ef e9bd
000000f0: 448e a7bd 0ea1 3dbd eb92 b4bd a8a4 67bd
00000100: 0857 103e 8a35 323e ea4c 4e3e 5eb4 703d
00000110: 73b3 193e ba29 da3d 9435 2e3d 392c d93d
00000120: 674b b93d f969 4b3e 4e76 d43d 8c4c 913e
00000130: 5c5c 093e e2bc 2f3e e3c9 f63d 7f1b 0d3e
00000140: be32 1d3e 061e bc3d 043d 373e b204 ab3d
00000150: 9602 d93d 647e eb3d b8db ea3d d1eb a43d
00000160: 3991 c13d 8e04 253e f1e1 2d3e 4f6c 583e
00000170: e5c2 b23e b02c cc3d 4230 553e 1863 ff3d
00000180: b2c9 333e bfa6 af3d 61a6 a23d 351f 083e
00000190: ae23 4a3e e23d 023e d6aa ff3d e593 583e
000001a0: 42a3 393d b7ed e33d 7533 3a3e 06b2 e73d
000001b0: 14b3 cd3d 6886 253e 47f8 593e 4780 7e3e
000001c0: d402 fa3d 702d 7f3e 6250 2b3e cb36 3b3e
000001d0: 2aae 8d3d 6f95 d93d e373 033e 2354 573d
000001e0: 8e3c eb3d 86a0 813e 1663 7d3e 6379 e53d
000001f0: d1d5 7d3e 9644 663d 5d9b 253d d569 163e
00000200: aab7 57bc 97eb e53c 8bba 163c 23f8 0fbd
00000210: 9c73 c4bb 4106 343c fe49 963c fd7b 323c
00000220: a2ef 86bd 92f9 093d 6ec0 5d3c 99f8 01bd
00000230: db14 eabc e669 38bd ab5c 8bbc da2f aabc
00000240: b482 d4bb a64f bd3b 78f5 c93c 4ad6 df3b
00000250: 0db3 a13b 55a4 a7bc 73d4 5ebc 96d2 fab9
00000260: aabe e73c 7e18 813a 54d3 e43b b7d3 b3bb
00000270: d267 03bd ebc3 163d daac d33c c87e f73c
00000280: b81b e8bc 2f63 d93b 2f38 1bbd a856 42bc
00000290: 2db0 0dbd 7f76 b43c 147d 3e3d f88a a2bb
000002a0: ce6c 84bc 1885 77bb 8284 b0bc d4eb a03c
000002b0: c41d 9e3a fb92 a3bc 24d7 acbb 041f e43c
000002c0: 9e32 9ebc 3aa2 203c aec4 c4bb 573e 203c
000002d0: 988d 3bba 56be 323d 1757 0a3c 4386 e63c
000002e0: 878b 6b3b abc6 d63c 7a96 42bc 8804 b1bc
000002f0: 77f4 a9bc b796 303d f8c6 77bc b7dd 68bc
00000300: b4f6 883c 51e2 933d e02c b53d c9c0 06bd
00000310: 1162 323d e7b9 a93d fe10 eabb 0470 3c3d
00000320: 6d49 e13b ad9f 8d3d 9e7b dc3c 5a50 9b3d
00000330: 1354 b73c 510d 8f3d 9fc5 153d 3db8 2b3d
00000340: 7a25 b73c 1e14 313d 07b5 593d 9b15 1f3c
00000350: bfd8 f93c 639f ab3d cad9 2e3d c68f ea3c
00000360: 04c8 0a3d 77fc a23d d12e 5c3d 5db9 733d
00000370: 3f4b 413e ebda 803d 0642 053d 3c63 8d3c
00000380: f0d7 153d 6f93 ae3d d03a 823b 99f0 5c3d
00000390: b54b b53d f9a9 5f3c cd8b 4c3d 3416 f73d
000003a0: 82e8 75bc b24e 863d a5e4 f53c 029d e23c
000003b0: 10d2 413d b05d f63c 3964 2f3d 2afc e13d
000003c0: 4cc8 273d 22b4 b23d 8ffb 143d 8fb6 563d
000003d0: eb1f 4e3d ae59 993b 8831 883c c8c3 e3bb
000003e0: a3b5 2f3d 6706 9d3d f86e 743d 4e4f e13c
000003f0: e52f e83d eca6 1a3d 6bfa b0b9 15ee cc3c

bilstm.weight_ih_l0_reverse f4 [256, 100]
0.015838914 -0.06558619 0.0056861537 0.046504542 -0.05750438 0.05142079 0.049347557 0.014473057
-0.13053833 -0.0021883326 -0.10054867 0.087484695 0.046557344 -0.018627359 -0.024442377 -0.1159276
0.1547818 -0.1380135 0.016451161 0.11092587 0.045121968 0.07781773 0.021887416 0.11808185
0.088391766 -0.027930086 -0.11724142 0.13597097 -0.060798477 -0.12014046 0.021185894 0.0150073385
0.0058395136 0.061322547 -0.016208975 -0.0723147 0.11311678 -0.15154147 0.065046005 -0.06608504
0.029176924 -0.044244356 0.10368737 -0.14665693 -6.219851e-06 0.029680574 0.09085028 0.085228905
0.10842914 -0.095613435 -0.0065891445 -0.094292 0.01661243 -0.024067879 0.068194605 -0.00065676414
-0.08223031 -0.024784693 -0.047091972 0.057087388 -0.039520953 -0.063105665 -0.053306744 0.08863638
0.0315149 -0.026120873 -0.019918796 -0.0017023584 -0.06987265 -0.05577826 -0.09653835 0.067369044
-0.0115465205 0.025183015 0.05623183 0.030144652 -0.006339805 -0.008813332 -0.0019280725 0.057938814
0.007509794 -0.039543428 0.038144905 0.037656754 -0.04888997 0.06488388 0.08366323 -0.12724198
-0.13488175 -0.07396379 0.059332337 0.00019654326 -0.015356943 -0.1117916 0.055961724 -0.0070518246
-0.034246672 0.13382803 -0.016169142 -0.044062495 0.037897855 -0.01964894 -0.04951344 -0.00071181095
-0.03855629 -0.0017444176 0.10064129 -0.014482681 -0.11179495 0.0025580914 -0.06039042 0.004521951
0.008404379 0.029655533 -0.062307034 -0.040374264 -0.017252233 -0.09875347 -6.024973e-05 -0.033187453
-0.057100605 0.019177703 0.025381159 0.048383582 0.039999712 0.026701324 -0.045748096 0.023768552
-0.048436705 -0.06274374 0.008530614 -0.0369151 0.00129293 0.041325804 0.1157261 -0.03608892
0.031256862 -0.013036057 -0.0049886103 0.034574028 0.0035763525 0.033895157 0.032880772 0.015185271
-0.022116885 0.037080888 0.03279961 0.009108623 -0.0060349237 0.030605482 -0.03483356 0.0002661881
0.06596902 0.00556371 0.019663256 -0.010476748 -0.029508386 -0.0011490154 -0.041372232 0.07985664
0.03145529 0.06095761 -0.0425153 0.10577191 0.0045949034 -0.010329216 -0.015514388 -0.027832288
-0.007944668 -0.010495899 0.005006716 0.0077229966 -0.02947471 -0.029863918 0.014990695 -0.015562534
-0.04079693 0.04383333 -7.8380355e-05 -0.025806973 0.053950924 0.041395362 -0.016772864 0.10398414
-0.0014533432 -0.020148648 -0.0054094824 -0.041978 -0.037725754 -0.023251789 -0.052872133 -0.109395586
0.013577075 -0.05235365 -0.026688376 0.013873281 -0.0037491934 0.10560676 -0.066753745 0.017781027
-0.025133483 0.008756638 -0.06442927 0.019579785 0.009735119 0.052334316 0.041742902 0.05400744
-0.06896775 -0.0065598646 -0.055576593 0.0012406594 -0.0228186 0.11545059 -0.0451509 -0.09201874
0.016260976 -0.13255242 -0.051047776 -0.018555876 0.07941053 0.04987807 0.081317954 0.053903542
0.056935918 -0.03676311 -0.08310068 -0.008449453 -0.111556076 -0.06972757 -0.0034241534 -0.04117744
0.068101056 0.024012588 0.057645068 -0.027658619 0.08122499 -0.14782435 0.091767125 0.005785297
0.0034194237 -0.035282854 0.14252819 -0.03184503 0.0015796482 0.036586806 -0.0020834105 0.037309773
0.069431625 -0.066528566 -0.07396937 -0.1640567 -0.008356593 -0.035115413 -0.016551929 0.033517677
00000000: 9cc0 813c 0d52 86bd ea52 ba3b 8c7b 3e3d
00000010: b689 6bbd 9b9e 523d aa20 4a3d 6720 6d3c
00000020: d7ab 05be 216a 0fbb 76ec cdbd 2d2b b33d
00000030: eab2 3e3d 6798 98bc 613b c8bc 736b edbd
00000040: 1f7f 1e3e 6953 0dbe 96c4 863c 1a2d e33d
00000050: d0d1 383d e75e 9f3d 3d4d b33c e6d4 f13d
00000060: be06 b53d a3cd e4bc 451c f0bd f93b 0b3e
00000070: d307 79bd 340c f6bd 0a8e ad3c 57e1 753c
00000080: 6459 bf3b 5a2d 7b3d afc8 84bc bb19 94bd
00000090: c5a9 e73d b02d 1bbe d736 853d 9857 87bd
000000a0: 7204 ef3c 9239 35bd 0b5a d43d 3c2d 16be
000000b0: 1db4 d0b6 ad24 f33c b60f ba3d 7e8c ae3d
000000c0: 1910 de3d fad0 c3bd c0e9 d7bb 2a1c c1bd
000000d0: ca16 883c 002a c5bc 9da9 8b3d b22a 2cba
000000e0: 5d68 a8bd 4509 cbbc 83e3 40bd 77d4 693d
000000f0: b9e0 21bd 8b3d 81bd 2c58 5abd fe86 b53d
00000100: c515 013d 71fb d5bc be2c a3bc ab21 dfba
00000110: 6419 8fbd bf77 64bd e6b5 c5bd c8f8 893d
00000120: 9e2d 3dbc 9c4c ce3c 5953 663d ebf1 f63c
00000130: 24be cfbb cb65 10bc 61b7 fcba 4051 6d3d
00000140: b814 f63b 4af8 21bd d53d 1c3d f83d 1a3d
00000150: d940 48bd d7e1 843d a157 ab3d b94b 02be
00000160: 711e 0abe 547a 97bd 7706 733d 2e17 4e39
00000170: b09b 7bbc fff2 e4bd 1f38 653d fe12 e7bb
00000180: 3d46 0cbd 370a 093e 2675 84bc e07a 34bd
00000190: c83a 1b3d d0f6 a0bc 9bce 4abd d398 3aba
000001a0: 33ed 1dbd f1a4 e4ba 051d ce3d c448 6dbc
000001b0: c0f4 e4bd a7a5 273b f25b 77bd e02c 943b
000001c0: 85b2 093c 29f0 f23c a935 7fbd 7c5f 25bd
000001d0: 8e54 8dbc 423f cabd a8b4 7cb8 91ef 07bd
000001e0: 53e2 69bd 8f1a 9d3c 26ec cf3c dd2d 463d
000001f0: bdd6 233d bcbc da3c 5b62 3bbd 44b6 c23c
00000200: 9165 46bd ca7f 80bd fdc3 0b3c 4a34 17bd
00000210: 8877 a93a 3f45 293d ce01 ed3d fad1 13bd
00000220: 3207 003d 3095 55bc 7f77 a3bb 7f9d 0d3d
00000230: 3d61 6a3b a6d5 0a3d fdad 063d a5cb 783c
00000240: 782e b5bc 21e2 173d e258 063d 553c 153c
00000250: 9cc0 c5bb 59b8 fa3c a3ad 0ebd 298f 8b39
00000260: c41a 873d c84f b63b d614 a13c aba6 2bbc
00000270: 92bb f1bc 8f9a 96ba ee75 29bd e18b a33d
00000280: 43d7 003d b0ae 793d 8624 2ebd f19e d83d
00000290: d890 963b df3b 29bc 0f30 7ebc 8a00 e4bc
000002a0: 5a2a 02bc fef6 2bbc 610f a43b 3111 fd3b
000002b0: f274 f1bc 2da5 f4bc 889b 753c 00fa 7ebc
000002c0: af1a 27bd 948a 333d 2260 a4b8 2569 d3bc
000002d0: a5fb 5c3d 2f8e 293d 3f67 89bc a3f5 d43d
000002e0: 1b7e beba c70e a5bc 0742 b1bb 20f1 2bbd
000002f0: 5286 1abd 897a bebc 7390 58bd cb0a e0bd
00000300: 6172 5e3c c870 56bd 95a1 dabc c24c 633c
00000310: 07b5 75bb 5b48 d83d 30b6 88bd 84a9 913c
00000320: bce4 cdbc 0078 0f3c 7ef3 83bd c965 a03c
00000330: 0c80 1f3c 825c 563d 9bfa 2a3d e836 5d3d
00000340: f73e 8dbd 22f4 d6bb 48a4 63bd 9f9d a23a
00000350: 13ee babc 5c71 ec3d 26f0 38bd 5274 bcbd
00000360: bd35 853c d2bb 07be 7917 51bd 7e02 98bc
00000370: fda1 a23d f24c 4c3d 078a a63d f6c9 5c3d
00000380: a335 693d ea94 16bd b030 aabd 936f 0abc
00000390: 8377 e4bd 54cd 8ebd c367 60bb ada9 28bd
000003a0: 9178 8b3d 0cb6 c43c 3c1d 6c3d 5494 e2bc
000003b0: 4a59 a63d 445f 17be 67f0 bb3d 9792 bd3b
000003c0: 6918 603b c184 10bd e9f2 113e ef6f 02bd
000003d0: 330c cf3a 0cdc 153d d489 08bb 22d2 183d
000003e0: 2b32 8e3d 2140 88bd 417d 97bd 7bfe 27be
000003f0: 17ea 08bc 2ed5 0fbd e997 87bc d549 093d

bilstm.weight_hh_l0_reverse f4 [256, 64]
-5.4408e-41 -5.0821e-41 5.985e-41 5.0113e-41 -5.9992e-41 -5.3485e-41 -5.1526e-41 -5.1704e-41
5.4907e-41 5.9977e-41 -5.1146e-41 -5.2662e-41 4.9228e-41 -4.9316e-41 5.2355e-41 5.146e-41
5.0207e-41 -5.1512e-41 5.2507e-41 4.948e-41 -4.9274e-41 5.171e-41 -5.5403e-41 -5.2689e-41
-4.9089e-41 -5.9384e-41 -6.2092e-41 5.7051e-41 -4.9767e-41 5.234e-41 -4.9483e-41 -5.7204e-41
-5.9953e-41 -4.9183e-41 4.9226e-41 5.0664e-41 5.8363e-41 -5.4253e-41 6.0786e-41 5.4384e-41
4.9078e-41 5.1154e-41 3.0582e-41 -5.0766e-41 4.9428e-41 5.6289e-41 -5.229e-41 5.0185e-41
4.9062e-41 4.9268e-41 -5.7459e-41 -5.0173e-41 -5.9062e-41 5.5281e-41 5.4229e-41 -5.6741e-41
5.4911e-41 5.0431e-41 5.4181e-41 -5.2306e-41 -5.2795e-41 -5.7955e-41 -5.1732e-41 -4.9239e-41
-4.9829e-41 -4.9705e-41 -4.986e-41 -5.6062e-41 -5.5114e-41 -5.7165e-41 4.9825e-41 4.9309e-41
4.9152e-41 -5.0776e-41 -4.9631e-41 -5.5735e-41 5.4111e-41 6.0493e-41 -5.6984e-41 -5.235e-41
-4.9284e-41 5.1258e-41 6.2518e-41 -5.5521e-41 -5.434e-41 5.4244e-41 5.7728e-41 -5.0392e-41
-5.6782e-41 -5.8307e-41 -5.1034e-41 -5.1557e-41 -5.0406e-41 5.3834e-41 6.0694e-41 -4.9123e-41
-5.2676e-41 5.247e-41 -5.6775e-41 5.0134e-41 4.9242e-41 4.9354e-41 4.9411e-41 4.9274e-41
-4.9645e-41 5.2324e-41 -5.5256e-41 -4.9997e-41 5.083e-41 5.1967e-41 5.6865e-41 6.1077e-41
5.7023e-41 5.9332e-41 -5.9365e-41 5.306e-41 4.9644e-41 -5.1799e-41 -5.1642e-41 5.2828e-41
5.2212e-41 -4.9962e-41 -4.9942e-41 5.9594e-41 6.1349e-41 5.1984e-41 5.1877e-41 5.0549e-41
-6.2553e-41 -5.4177e-41 4.9663e-41 5.0354e-41 -6.2988e-41 -5.9643e-41 -5.8867e-41 -5.0682e-41
5.2612e-41 6.2192e-41 -5.0238e-41 -6.0104e-41 4.9885e-41 5.0068e-41 6.2588e-41 5.0077e-41
-4.9448e-41 5.0557e-41 -6.0673e-41 -5.345e-41 6.2415e-41 4.9743e-41 -5.4994e-41 4.9116e-41
-5.2347e-41 6.211e-41 -5.321e-41 4.9484e-41 -5.6282e-41 6.1021e-41 -5.8028e-41 -5.0985e-41
5.7343e-41 -5.2383e-41 5.0127e-41 -5.4596e-41 5.7485e-41 5.743e-41 5.6719e-41 -5.263e-41
5.4691e-41 -4.9937e-41 5.2896e-41 5.7589e-41 -5.8458e-41 -5.7401e-41 -6.0554e-41 -5.1248e-41
-5.3066e-41 -5.1288e-41 -4.9305e-41 4.9114e-41 -5.926e-41 -6.1755e-41 -5.5744e-41 -5.7551e-41
4.941e-41 5.9889e-41 5.6449e-41 -6.1865e-41 5.0304e-41 4.9218e-41 5.3577e-41 6.3011e-41
-5.7882e-41 5.9276e-41 -5.9164e-41 -4.9352e-41 5.3646e-41 -5.0133e-41 5.0553e-41 -5.0751e-41
-6.2638e-41 -5.3126e-41 5.0335e-41 4.9177e-41 4.9595e-41 5.176e-41 6.1999e-41 -5.4285e-41
-6.0833e-41 -5.1129e-41 -4.9635e-41 -5.9321e-41 -4.9166e-41 -5.0113e-41 6.2815e-41 -5.0351e-41
5.767e-41 -5.3614e-41 -5.1728e-41 4.9094e-41 -4.9993e-41 5.2097e-41 6.1448e-41 -6.1077e-41
5.2584e-41 -4.9508e-41 -4.9268e-41 5.4962e-41 -6.1074e-41 4.9469e-41 -5.3692e-41 5.539e-41
-5.8223e-41 -5.0632e-41 -4.9914e-41 -5.2477e-41 -5.2603e-41 5.9296e-41 -4.9712e-41 5.0548e-41
-4.911e-41 4.9487e-41 -4.9506e-41 5.3974e-41 -5.1038e-41 5.1195e-41 5.0878e-41 -5.0528e-41
5.6398e-41 -2.277e-42 -5.5679e-41 -5.0601e-41 6.2272e-41 6.1879e-41 -1.26567e-40 -5.7603e-41
00000000: ab97 0080 ab8d 0080 d6a6 0000 b28b 0000
00000010: 3ca7 0080 1895 0080 a28f 0080 2190 0080
00000020: 0f99 0000 31a7 0000 938e 0080 cd92 0080
00000030: 3a89 0000 7989 0080 f291 0000 738f 0000
00000040: f58b 0000 988f 0080 5e92 0000 ee89 0000
00000050: 5b89 0080 2590 0000 719a 0080 e092 0080
00000060: d788 0080 8aa5 0080 16ad 0080 099f 0000
00000070: bb8a 0080 e791 0000 f089 0080 769f 0080
00000080: 20a7 0080 1a89 0080 3989 0000 3b8d 0000
00000090: b1a2 0000 3c97 0080 72a9 0000 9a97 0000
000000a0: cf88 0000 998e 0000 4055 0000 848d 0080
000000b0: c989 0000 e99c 0000 c391 0080 e58b 0000
000000c0: c488 0000 5789 0000 2ca0 0080 dd8b 0080
000000d0: a4a4 0080 1a9a 0000 2b97 0000 2c9e 0080
000000e0: 1299 0000 958c 0000 0997 0000 cf91 0080
000000f0: 2c93 0080 8ea1 0080 3590 0080 4289 0080
00000100: e78a 0080 8f8a 0080 fd8a 0080 479c 0080
00000110: a399 0080 5a9f 0080 e48a 0000 7489 0000
00000120: 0489 0000 8b8d 0080 5a8a 0080 5e9b 0080
00000130: d796 0000 a1a8 0000 d99e 0080 ee91 0080
00000140: 6289 0080 e38e 0000 46ae 0000 c59a 0080
00000150: 7a97 0080 3697 0000 eca0 0000 798c 0080
00000160: 499e 0080 89a2 0080 438e 0080 b88f 0080
00000170: 838c 0080 1196 0000 31a9 0000 ef88 0080
00000180: d792 0080 4492 0000 449e 0080 c18b 0000
00000190: 4489 0000 9489 0000 bd89 0000 5b89 0000
000001a0: 648a 0080 dc91 0000 089a 0080 5f8b 0080
000001b0: b28d 0000 dd90 0000 849e 0000 42aa 0000
000001c0: f59e 0000 65a5 0000 7ca5 0080 e993 0000
000001d0: 638a 0000 6590 0080 f58f 0080 4393 0000
000001e0: 8c91 0000 468b 0080 388b 0080 20a6 0000
000001f0: 04ab 0000 e990 0000 9d90 0000 e98c 0000
00000200: 5fae 0080 0697 0080 718a 0000 5e8c 0000
00000210: 96af 0080 43a6 0080 19a4 0080 488d 0080
00000220: a992 0000 5ead 0000 0b8c 0080 8ca7 0080
00000230: 0f8b 0000 928b 0000 78ae 0000 988b 0000
00000240: d789 0080 ef8c 0000 22a9 0080 ff94 0080
00000250: fdad 0000 aa8a 0000 4d99 0080 ea88 0000
00000260: ec91 0080 23ad 0000 5494 0080 f189 0000
00000270: e49c 0080 1aaa 0000 c2a1 0080 208e 0080
00000280: d99f 0000 0692 0080 bc8b 0000 3198 0080
00000290: 3fa0 0000 17a0 0000 1c9e 0000 b692 0080
000002a0: 7598 0000 348b 0080 7493 0000 89a0 0000
000002b0: f5a2 0080 03a0 0080 cda8 0080 dc8e 0080
000002c0: ed93 0080 f88e 0080 7189 0080 e988 0000
000002d0: 31a5 0080 26ac 0080 649b 0080 6ea0 0080
000002e0: bc89 0000 f2a6 0000 5b9d 0000 74ac 0080
000002f0: 3a8c 0000 3389 0000 5a95 0000 a6af 0000
00000300: 5aa1 0080 3da5 0000 eda4 0080 9389 0080
00000310: 8b95 0000 c08b 0080 ec8c 0000 798d 0080
00000320: 9cae 0080 1894 0080 508c 0000 1689 0000
00000330: 408a 0000 4990 0000 d4ac 0000 5397 0080
00000340: 94a9 0080 878e 0080 5d8a 0080 5da5 0080
00000350: 0e89 0080 b28b 0080 1aaf 0000 5c8c 0080
00000360: c3a0 0000 7495 0080 3290 0080 db88 0000
00000370: 5c8b 0080 3a91 0000 4bab 0000 42aa 0080
00000380: 9592 0000 028a 0080 5789 0080 3699 0000
00000390: 40aa 0080 e689 0000 ac95 0080 689a 0000
000003a0: 4da2 0080 248d 0080 248b 0080 4992 0080
000003b0: a392 0080 4ba5 0000 948a 0080 e88c 0000
000003c0: e688 0080 f389 0000 018a 0080 7596 0000
000003d0: 468e 0080 b68e 0000 d48d 0000 da8c 0080
000003e0: 379d 0000 5906 0080 369b 0080 0e8d 0080
000003f0: 97ad 0000 7eac 0000 d160 0180 93a0 0080

bilstm.bias_ih_l0_reverse f4 [256]
0.17727895 0.08424316 0.18616071 0.17266692 0.11643531 0.05892722 0.0993968 0.13803464
0.12291216 0.10964029 0.19464149 0.13390331 0.088715844 0.14248842 0.12284289 0.16457178
0.042300668 0.17894793 0.1944132 0.1516943 0.11614851 0.16047353 0.09972762 0.17051041
0.12810428 0.17201659 0.11452706 0.10608425 0.1308533 0.15953825 0.16917154 0.20097587
0.16580793 0.19788596 0.16402413 0.13955286 0.1997966 0.20685051 0.16349219 0.10378189
0.120056 0.15716049 0.18829392 0.14088549 0.1548322 0.10718429 0.10899127 0.09547751
0.1695945 0.123356596 0.090568334 0.16398342 0.11466078 0.124134265 0.14979078 0.12843959
0.1201135 0.08346828 0.08172694 0.132908 0.17272335 0.15722136 0.15294948 0.1380747
0.0 0.0 0.0 0.0 0.0 0.0 0.0 0.0
0.0 0.0 0.0 0.0 0.0 0.0 0.0 0.0
0.0 0.0 0.0 0.0 0.0 0.0 0.0 0.0
0.0 0.0 0.0 0.0 0.0 0.0 0.0 0.0
0.0 0.0 0.0 0.0 0.0 0.0 0.0 0.0
0.0 0.0 0.0 0.0 0.0 0.0 0.0 0.0
0.0 0.0 0.0 0.0 0.0 0.0 0.0 0.0
0.0 0.0 0.0 0.0 0.0 0.0 0.0 0.0
0.086337574 0.026459929 0.045087613 -0.029233666 -0.10150976 -0.12702216 -0.027759328 0.043366607
0.06267021 -0.030417249 0.09308821 0.002205042 0.1016826 -0.014374562 0.07190086 0.027834777
0.047515355 0.028600894 0.03019287 -0.056782722 0.07372093 0.02055879 -0.08961795 -0.051776636
-0.06633665 -0.02690105 0.0767433 -0.0016112068 0.066658735 -0.014410861 -0.046830565 -0.005352181
-0.021103606 0.053508498 0.015016787 -0.04484575 -0.011027819 0.010259384 -0.043912183 0.05789754
-0.053934596 0.0767259 -0.008922395 -0.055709574 0.015773663 0.008629642 -0.05565173 -0.061887424
-0.022517687 -0.058535356 -0.011672479 0.033670496 0.056952108 0.006783007 -0.08416965 0.029273968
-0.0640652 0.111391336 0.027526626 0.026569415 0.038524933 0.0073805028 -0.10837981 -0.058536194
0.17221889 0.085586004 0.19034193 0.17703684 0.10998284 0.06160153 0.10414979 0.13486503
0.12702455 0.120485246 0.19363546 0.13392001 0.09587686 0.14200968 0.110739075 0.16201401
0.04363739 0.1817563 0.18788984 0.14861609 0.116459064 0.16944824 0.10616239 0.17664738
0.11486174 0.16644871 0.11758753 0.10785555 0.12988411 0.1421956 0.17443776 0.19035798
0.16758959 0.18657559 0.16223565 0.1331738 0.18237728 0.19265749 0.1490786 0.09500559
0.12100947 0.15815797 0.18090172 0.14013761 0.15341042 0.11282425 0.11359816 0.09093962
0.16587207 0.12408121 0.086629845 0.15990062 0.112804554 0.12495935 0.14306785 0.1256752
0.12811513 0.08449229 0.07812409 0.12769787 0.16825859 0.1640282 0.15120724 0.14012426
00000000: 9d88 353e ae87 ac3d eaa0 3e3e 99cf 303e
00000010: a375 ee3d ab5d 713d 8d90 cb3d f458 0d3e
00000020: 5fb9 fb3d 178b e03d 1950 473e f31d 093e
00000030: a7b0 b53d 7ce8 113e 0e95 fb3d 8185 283e
00000040: 7743 2d3d 203e 373e 4114 473e c055 1b3e
00000050: 45df ed3d 2c53 243e ff3d cc3d 489a 2e3e
00000060: c52d 033e 1e25 303e 2a8d ea3d b342 d93d
00000070: 68fe 053e ff5d 233e 4e3b 2d3e 9ecc 4d3e
00000080: 8ec9 293e 9ea2 4a3e f1f5 273e f2e6 0e3e
00000090: 7b97 4c3e 9fd0 533e 7f6a 273e 998b d43d
000000a0: ecdf f53d aeee 203e 1fd0 403e 4944 103e
000000b0: 558c 1e3e 7083 db3d d136 df3d b689 c33d
000000c0: 2eaa 2d3e 62a2 fc3d e47b b93d 45eb 273e
000000d0: 45d3 ea3d 1b3a fe3d c162 193e ab85 033e
000000e0: 11fe f53d 6bf1 aa3d 7460 a73d 0919 083e
000000f0: 64de 303e a3fe 203e ca9e 1c3e 7463 0d3e
00000100: 0000 0000 0000 0000 0000 0000 0000 0000
00000110: 0000 0000 0000 0000 0000 0000 0000 0000
00000120: 0000 0000 0000 0000 0000 0000 0000 0000
00000130: 0000 0000 0000 0000 0000 0000 0000 0000
00000140: 0000 0000 0000 0000 0000 0000 0000 0000
00000150: 0000 0000 0000 0000 0000 0000 0000 0000
00000160: 0000 0000 0000 0000 0000 0000 0000 0000
00000170: 0000 0000 0000 0000 0000 0000 0000 0000
00000180: 0000 0000 0000 0000 0000 0000 0000 0000
00000190: 0000 0000 0000 0000 0000 0000 0000 0000
000001a0: 0000 0000 0000 0000 0000 0000 0000 0000
000001b0: 0000 0000 0000 0000 0000 0000 0000 0000
000001c0: 0000 0000 0000 0000 0000 0000 0000 0000
000001d0: 0000 0000 0000 0000 0000 0000 0000 0000
000001e0: 0000 0000 0000 0000 0000 0000 0000 0000
000001f0: 0000 0000 0000 0000 0000 0000 0000 0000
00000200: c1d1 b03d 7ec2 d83c caad 383d 717b efbc
00000210: 59e4 cfbd 1912 02be 8867 e3bc 2fa1 313d
00000220: 3d59 803d 982d f9bc 08a5 be3d 7782 103b
00000230: f83e d03d 4883 6bbc c240 933d c205 e43c
00000240: 769f 423d 6c4c ea3c 0a57 f73c 0095 68bd
00000250: 00fb 963d e86a a83c 9e89 b7bd bd13 54bd
00000260: 82db 87bd 975f dcbc 972b 9d3d 212f d3ba
00000270: 6084 883d 881b 6cbc 68d1 3fbd 5961 afbb
00000280: 78e1 acbc ba2b 5b3d f808 763c 2db0 37bd
00000290: 06ae 34bc fa16 283c 43dd 33bd f925 6d3d
000002a0: 86ea 5cbd 7822 9d3d 3d2f 12bc b92f 64bd
000002b0: c537 813c 5863 0d3c 12f3 63bd ab7d 7dbd
000002c0: 0377 b8bc c5c2 6fbd ed3d 3fbc 13ea 093d
000002d0: 9d46 693d fd43 de3b 2361 acbd f6cf ef3c
000002e0: 9e34 83bd 2421 e43d 857f e13c 1aa8 d93c
000002f0: 52cc 1d3d 25d8 f13b 3cf6 ddbd a6c3 6fbd
00000300: 265a 303e b747 af3d ffe8 423e 2549 353e
00000310: af3e e13d e351 7c3d 7c4c d53d 0f1a 0a3e
00000320: b912 023e f8c0 f63d 6048 463e 5422 093e
00000330: 165b c43d fc6a 113e 2bcb e23d 00e7 253e
00000340: 1fbd 323d 531e 3a3e 3266 403e d12e 183e
00000350: 1782 ee3d d783 2d3e ab6b d93d 0de3 343e
00000360: a23c eb3d 8871 2a3e bbd1 f03d 5fe3 dc3d
00000370: 5700 053e b99b 113e d09f 323e 34ed 423e
00000380: 9b9c 2b3e ac0d 3f3e 1a21 263e b65e 083e
00000390: 1cc1 3a3e 0148 453e 0fa8 183e 4a92 c23d
000003a0: d0d3 f73d 2af4 213e 4d3e 393e 3c80 0f3e
000003b0: 9f17 1d3e 6610 e73d 27a6 e83d 8d3e ba3d
000003c0: 5eda 293e 4a1e fe3d fd6a b13d fdbc 233e
000003d0: 1306 e73d b0ea ff3d 6180 123e 00b1 003e
000003e0: 9d30 033e 4b0a ad3d 86ff 9f3d 3bc3 023e
000003f0: fb4b 2c3e 02f7 273e 12d6 1a3e bc7c 0f3e

bilstm.bias_hh_l0_reverse f4 [256]
0.17727895 0.08424316 0.18616071 0.17266692 0.11643531 0.05892722 0.0993968 0.13803464
0.12291216 0.10964029 0.19464149 0.13390331 0.088715844 0.14248842 0.12284289 0.16457178
0.042300668 0.17894793 0.1944132 0.1516943 0.11614851 0.16047353 0.09972762 0.17051041
0.12810428 0.17201659 0.11452706 0.10608425 0.1308533 0.15953825 0.16917154 0.20097587
0.16580793 0.19788596 0.16402413 0.13955286 0.1997966 0.20685051 0.16349219 0.10378189
0.120056 0.15716049 0.18829392 0.14088549 0.1548322 0.10718429 0.10899127 0.09547751
0.1695945 0.123356596 0.090568334 0.16398342 0.11466078 0.124134265 0.14979078 0.12843959
0.1201135 0.08346828 0.08172694 0.132908 0.17272335 0.15722136 0.15294948 0.1380747
0.0 0.0 0.0 0.0 0.0 0.0 0.0 0.0
0.0 0.0 0.0 0.0 0.0 0.0 0.0 0.0
0.0 0.0 0.0 0.0 0.0 0.0 0.0 0.0
0.0 0.0 0.0 0.0 0.0 0.0 0.0 0.0
0.0 0.0 0.0 0.0 0.0 0.0 0.0 0.0
0.0 0.0 0.0 0.0 0.0 0.0 0.0 0.0
0.0 0.0 0.0 0.0 0.0 0.0 0.0 0.0
0.0 0.0 0.0 0.0 0.0 0.0 0.0 0.0
0.086337574 0.026459929 0.045087613 -0.029233666 -0.10150976 -0.12702216 -0.027759328 0.043366607
0.06267021 -0.030417249 0.09308821 0.002205042 0.1016826 -0.014374562 0.07190086 0.027834777
0.047515355 0.028600894 0.03019287 -0.056782722 0.07372093 0.02055879 -0.08961795 -0.051776636
-0.06633665 -0.02690105 0.0767433 -0.0016112068 0.066658735 -0.014410861 -0.046830565 -0.005352181
-0.021103606 0.053508498 0.015016787 -0.04484575 -0.011027819 0.010259384 -0.043912183 0.05789754
-0.053934596 0.0767259 -0.008922395 -0.055709574 0.015773663 0.008629642 -0.05565173 -0.061887424
-0.022517687 -0.058535356 -0.011672479 0.033670496 0.056952108 0.006783007 -0.08416965 0.029273968
-0.0640652 0.111391336 0.027526626 0.026569415 0.038524933 0.0073805028 -0.10837981 -0.058536194
0.17221889 0.085586004 0.19034193 0.17703684 0.10998284 0.06160153 0.10414979 0.13486503
0.12702455 0.120485246 0.19363546 0.13392001 0.09587686 0.14200968 0.110739075 0.16201401
0.04363739 0.1817563 0.18788984 0.14861609 0.116459064 0.16944824 0.10616239 0.17664738
0.11486174 0.16644871 0.11758753 0.10785555 0.12988411 0.1421956 0.17443776 0.19035798
0.16758959 0.18657559 0.16223565 0.1331738 0.18237728 0.19265749 0.1490786 0.09500559
0.12100947 0.15815797 0.18090172 0.14013761 0.15341042 0.11282425 0.11359816 0.09093962
0.16587207 0.12408121 0.086629845 0.15990062 0.112804554 0.12495935 0.14306785 0.1256752
0.12811513 0.08449229 0.07812409 0.12769787 0.16825859 0.1640282 0.15120724 0.14012426
00000000: 9d88 353e ae87 ac3d eaa0 3e3e 99cf 303e
00000010: a375 ee3d ab5d 713d 8d90 cb3d f458 0d3e
00000020: 5fb9 fb3d 178b e03d 1950 473e f31d 093e
00000030: a7b0 b53d 7ce8 113e 0e95 fb3d 8185 283e
00000040: 7743 2d3d 203e 373e 4114 473e c055 1b3e
00000050: 45df ed3d 2c53 243e ff3d cc3d 489a 2e3e
00000060: c52d 033e 1e25 303e 2a8d ea3d b342 d93d
00000070: 68fe 053e ff5d 233e 4e3b 2d3e 9ecc 4d3e
00000080: 8ec9 293e 9ea2 4a3e f1f5 273e f2e6 0e3e
00000090: 7b97 4c3e 9fd0 533e 7f6a 273e 998b d43d
000000a0: ecdf f53d aeee 203e 1fd0 403e 4944 103e
000000b0: 558c 1e3e 7083 db3d d136 df3d b689 c33d
000000c0: 2eaa 2d3e 62a2 fc3d e47b b93d 45eb 273e
000000d0: 45d3 ea3d 1b3a fe3d c162 193e ab85 033e
000000e0: 11fe f53d 6bf1 aa3d 7460 a73d 0919 083e
000000f0: 64de 303e a3fe 203e ca9e 1c3e 7463 0d3e
00000100: 0000 0000 0000 0000 0000 0000 0000 0000
00000110: 0000 0000 0000 0000 0000 0000 0000 0000
00000120: 0000 0000 0000 0000 0000 0000 0000 0000
00000130: 0000 0000 0000 0000 0000 0000 0000 0000
00000140: 0000 0000 0000 0000 0000 0000 0000 0000
00000150: 0000 0000 0000 0000 0000 0000 0000 0000
00000160: 0000 0000 0000 0000 0000 0000 0000 0000
00000170: 0000 0000 0000 0000 0000 0000 0000 0000
00000180: 0000 0000 0000 0000 0000 0000 0000 0000
00000190: 0000 0000 0000 0000 0000 0000 0000 0000
000001a0: 0000 0000 0000 0000 0000 0000 0000 0000
000001b0: 0000 0000 0000 0000 0000 0000 0000 0000
000001c0: 0000 0000 0000 0000 0000 0000 0000 0000
000001d0: 0000 0000 0000 0000 0000 0000 0000 0000
000001e0: 0000 0000 0000 0000 0000 0000 0000 0000
000001f0: 0000 0000 0000 0000 0000 0000 0000 0000
00000200: c1d1 b03d 7ec2 d83c caad 383d 717b efbc
00000210: 59e4 cfbd 1912 02be 8867 e3bc 2fa1 313d
00000220: 3d59 803d 982d f9bc 08a5 be3d 7782 103b
00000230: f83e d03d 4883 6bbc c240 933d c205 e43c
00000240: 769f 423d 6c4c ea3c 0a57 f73c 0095 68bd
00000250: 00fb 963d e86a a83c 9e89 b7bd bd13 54bd
00000260: 82db 87bd 975f dcbc 972b 9d3d 212f d3ba
00000270: 6084 883d 881b 6cbc 68d1 3fbd 5961 afbb
00000280: 78e1 acbc ba2b 5b3d f808 763c 2db0 37bd
00000290: 06ae 34bc fa16 283c 43dd 33bd f925 6d3d
000002a0: 86ea 5cbd 7822 9d3d 3d2f 12bc b92f 64bd
000002b0: c537 813c 5863 0d3c 12f3 63bd ab7d 7dbd
000002c0: 0377 b8bc c5c2 6fbd ed3d 3fbc 13ea 093d
000002d0: 9d46 693d fd43 de3b 2361 acbd f6cf ef3c
000002e0: 9e34 83bd 2421 e43d 857f e13c 1aa8 d93c
000002f0: 52cc 1d3d 25d8 f13b 3cf6 ddbd a6c3 6fbd
00000300: 265a 303e b747 af3d ffe8 423e 2549 353e
00000310: af3e e13d e351 7c3d 7c4c d53d 0f1a 0a3e
00000320: b912 023e f8c0 f63d 6048 463e 5422 093e
00000330: 165b c43d fc6a 113e 2bcb e23d 00e7 253e
00000340: 1fbd 323d 531e 3a3e 3266 403e d12e 183e
00000350: 1782 ee3d d783 2d3e ab6b d93d 0de3 343e
00000360: a23c eb3d 8871 2a3e bbd1 f03d 5fe3 dc3d
00000370: 5700 053e b99b 113e d09f 323e 34ed 423e
00000380: 9b9c 2b3e ac0d 3f3e 1a21 263e b65e 083e
00000390: 1cc1 3a3e 0148 453e 0fa8 183e 4a92 c23d
000003a0: d0d3 f73d 2af4 213e 4d3e 393e 3c80 0f3e
000003b0: 9f17 1d3e 6610 e73d 27a6 e83d 8d3e ba3d
000003c0: 5eda 293e 4a1e fe3d fd6a b13d fdbc 233e
000003d0: 1306 e73d b0ea ff3d 6180 123e 00b1 003e
000003e0: 9d30 033e 4b0a ad3d 86ff 9f3d 3bc3 023e
000003f0: fb4b 2c3e 02f7 273e 12d6 1a3e bc7c 0f3e
