rnn_model_complete.pth (torch, 260541 bytes, 13 tensors)

weight_ih_l0 f4 [128, 100]
00000000: 680c 12bd e158 943e 1d5a 67be c721 e33d
00000010: a6f4 4bbd bf7c 3fbc 7136 853c e56e 023e
00000020: 50cc e63d 61ff e33c cf92 f63c ddfe 4fbe
00000030: 7cee 80be 256d d1bd d914 0d3d 41a0 3e3d
00000040: 0282 cb3d 0fe1 8f3d 59be 14bd 15ef 653e
00000050: e9d3 c1bd 9fa1 b63d 95ed be3d d74d bbbd
00000060: 6c70 a1bc 11ef f5bc 1fd9 393e 5e1e 263d
00000070: 7f1f 8bbc f6e0 753d 2219 fc3d 1925 ebba
00000080: 992a f5bc ae56 19be 2544 ce3b b584 8c3d
00000090: c6d9 733d 0701 053d 6953 173e 25c9 443e
000000a0: 18a4 02bd c872 02bc 4a10 86bd 60ed c1bd
000000b0: 9bc5 4e3e cad5 ddbd 3a09 be3d 045e 603d
000000c0: 753e efbc 310c 1a3d e43a bebc 0d65 20be
000000d0: 4938 12be 9f54 0e3e 8481 92bd bf64 843d
000000e0: a799 d4bd 3964 423e fc39 033c ab55 0c3e
000000f0: d964 e2bd 9213 9abd 2b3a 28be 3924 9f3d
00000100: 0b87 4c3e f88d 4c3e 5eb9 133e a2d7 2dbd
00000110: 2bbb 123d 8334 713d dcb3 97be 0e15 08be
00000120: e066 7d3d 055b 1dbe 0bd3 623e c7f7 883d
00000130: b5bb c03d d625 8abc 3f59 a3ba 4835 d13d
00000140: 4f6c 46bd 8c47 ba3d 0d44 d43c 24df 0c3e
00000150: 4211 ff3b 2869 44be cb6d 0e3e 2ca0 f8bd
00000160: 8e52 73be 94f6 a6bd d01e 823d d20c a2bd
00000170: 15b7 fabd 09ed 293d 86d0 973e 0273 8dbc
00000180: dca7 d4bd 0cde 393c 3395 1c3e 92c4 7f3c
00000190: b3e4 403e de17 50be 42c9 163d 1c75 d03d
000001a0: 2ae0 34be 4676 613d 9347 8bbc 436e d33d
000001b0: 3d92 f3bd b756 813d e569 613c 528f 853e
000001c0: d6e5 f8bb a4d4 8b3b 1135 2abe 94c7 42be
000001d0: e81b 093e 2e7c 58be e1d6 2abe 3b8d 22bc
000001e0: bfe9 13be 6530 07be 291e 6d3c 01a0 cfbd
000001f0: 3c97 2d3e f13a 14bd 8988 21bd 8f1d e1bd
00000200: ccd8 a43e 9156 67be ce10 2dbe b0df 4bbb
00000210: 442b 4a3e 8fb7 b7bd af54 923d 1af4 19be
00000220: 5b2e 9ebd dd75 5c3e 9715 10be eded ab3d
00000230: 59d1 103e f0a8 00be ede2 493e 314d 313e
00000240: 2a63 9bbd 0c94 9f3d 0658 093e 98a0 bd3d
00000250: 292a 203e 92ce cfbd 7233 bdbd bc46 1b3e
00000260: 866d ff3d 61ce 673d 2ef1 a23d 2e96 0d3e
00000270: 021d b13d 686b 6a3d 669a 82bd 2cb5 52bc
00000280: c8e5 7abd f17e ac3d d541 a33d 08b8 16be
00000290: 7608 f1bd 710a 983d 0ab5 bb3d 9fe4 783e
000002a0: 40eb 8ebd 6c6d 803e 8924 6abd 9e2d 94bc
000002b0: 914b 1ebd eec1 763e 3a67 283d 61db a8bd
000002c0: eb3d b23d f8d9 36bd ec1e aebd f369 613d
000002d0: f51d 263e e582 2fbe 9f6c 35be f9a8 fb3d
000002e0: 1bfd 4cbe bf0d f2bd f421 7c3e eeea 083e
000002f0: b6dc 5ebe 1dcc 8dbd 8baa a23c ea9b e13d
00000300: c1dd 76be be48 67bd 88bd 7abd a2a5 fdbd
00000310: 29fe d5bd 0308 7d3d d7c2 373e 9d1e 5e3e
00000320: 8f9a b1bd 0cbd b13d ba41 abbe 3657 23be
00000330: d61f 23be 653b c2be 4fd2 113d 4433 bcbd
00000340: a5f3 223e a8fc 0fbc 7c47 f6bb 91da 06be
00000350: 30db e33d fb59 f03d 8c7e 4fbe 7b34 913d
00000360: feaf 283e 4cb5 54be 4126 4cbe 7288 55be
00000370: 399b 57be b27f 0f3e 5ad1 e63c dc05 573e
00000380: 8330 85bd 1bcd 22be 3d6f 543e 6f6f 0f3e
00000390: 2519 d6bd c33c 2e3e d5f3 853d df69 2abd
000003a0: 9bb6 8fbd e017 46bd e6f7 d2bd 859f 413d
000003b0: 514f 32bd 3e9c 8dbd f2bb 423e 0b8a d2bd
000003c0: 08c6 d0bc 6ff7 983d ab4a 893d a25f 85be
000003d0: 8edf 9cbd e844 efbd d045 19be 5392 5b3e
000003e0: e9f3 c6bd f5cf a3bc 6ca7 b5bc c1d5 153e
000003f0: 87cc 193b 5de2 04bd 8f2b 323e 2473 02be
-0.035656363 0.2897406 -0.22592969 0.11090427 -0.04979386 -0.011687457 0.016261311 0.12737615
0.11269438 0.027831735 0.0300993 -0.20312066 -0.2518195 -0.10225896 0.03444371 0.04653955
0.099369064 0.070253484 -0.036314342 0.22454484 -0.09464247 0.089175455 0.09322659 -0.09145706
-0.019706927 -0.030021222 0.18149231 0.040556304 -0.016982792 0.060028993 0.12309481 -0.0017940133
-0.029927539 -0.14974472 0.0062947446 0.06861249 0.059533857 0.032471683 0.14777912 0.19217356
-0.031894773 -0.007961936 -0.06546076 -0.09469104 0.20192568 -0.10831793 0.092791036 0.05477716
-0.029204587 0.037609283 -0.02322144 -0.15663548 -0.14279284 0.13899468 -0.071536094 0.06464528
-0.10380869 0.18983544 0.00800943 0.13704555 -0.110543914 -0.07523264 -0.1642844 0.07770581
0.1997339 0.19976032 0.1442618 -0.04244197 0.03582303 0.05888797 -0.2962941 -0.13289282
0.061865687 -0.15366752 0.22150819 0.06687885 0.09410802 -0.016863745 -0.001246251 0.10215241
-0.048443135 0.09095678 0.025911355 0.13756996 0.0077840397 -0.19180739 0.1390907 -0.12139925
-0.23761961 -0.081525 0.06353533 -0.079126015 -0.122419514 0.04148582 0.29651278 -0.017266754
-0.10383579 0.011344444 0.1529129 0.015610831 0.18837242 -0.20321605 0.03681303 0.10178587
-0.17663637 0.055044435 -0.017001903 0.10323765 -0.11893127 0.06315368 0.013758157 0.26085907
-0.007595758 0.004267292 -0.16621806 -0.19021446 0.13389552 -0.21141121 -0.16683532 -0.009921367
-0.14444636 -0.13202055 0.014472523 -0.1013794 0.16952223 -0.036189023 -0.03943685 -0.10991966
0.32196653 -0.22591616 -0.16900942 -0.003110867 0.19743067 -0.08970558 0.07145058 -0.15034524
-0.07723685 0.21529336 -0.14070736 0.0839499 0.1414236 -0.12564445 0.19715472 0.17314602
-0.075872734 0.077919096 0.13412485 0.092591465 0.15641083 -0.10146822 -0.09238328 0.15163702
0.12472062 0.056593303 0.079561576 0.1382682 0.08648111 0.057231337 -0.063771054 -0.012860578
-0.061254293 0.0842265 0.07971541 -0.1471864 -0.11769192 0.074238665 0.0916539 0.24305962
-0.06978464 0.25083482 -0.05716375 -0.018088158 -0.038646284 0.24097416 0.04111407 -0.08244968
0.08703216 -0.044641465 -0.08501992 0.05503268 0.16222365 -0.17139776 -0.17717217 0.12288088
-0.20018427 -0.11819028 0.24622327 0.13370869 -0.21763882 -0.06923697 0.019856712 0.11016066
-0.2410803 -0.056465857 -0.061215907 -0.123851076 -0.10448868 0.06177522 0.17945419 0.21691366
-0.08672058 0.08678636 -0.33448583 -0.15951237 -0.15930113 -0.3793594 0.035600957 -0.09189466
0.15913256 -0.008788265 -0.007515846 -0.13169314 0.11125791 0.117359124 -0.20263118 0.07090088
0.16473386 -0.20772284 -0.19936468 -0.20852831 -0.21055306 0.14013556 0.028175998 0.20998329
-0.065033935 -0.15898554 0.20745559 0.14007352 -0.10454015 0.17015366 0.06540648 -0.041604873
-0.07017251 -0.048362613 -0.10301189 0.04727127 -0.043532673 -0.069145665 0.19017008 -0.10280236
-0.025485054 0.07469069 0.06703695 -0.26049525 -0.07659827 -0.11683065 -0.14968038 0.21442537
-0.09714491 -0.019996623 -0.02217456 0.14632322 0.0023467855 -0.03244244 0.17399429 -0.12739235

weight_hh_l0 f4 [128, 128]
00000000: 86a9 b2bd 9d37 20be 3206 693d 03df 893d
00000010: 55bd 24bc 828c 6abe 7ff7 873d 81bb 3b3e
00000020: 95b4 e5bd e2cf 48be 2b1e 133e 438d 5d3b
00000030: 575d 633d e7d1 033e a386 29be 20a0 143e
00000040: 0f17 693d 847f 90bd a52a b0bc 2203 3bbe
00000050: a3dd 1b3b d8d5 013e cbf8 70bd 6599 c0bd
00000060: c6ab 62bc bba7 2d3e e93f 213d 5e83 5bbe
00000070: a702 85bc f8d3 743d 23a9 6c3e 1968 e4bd
00000080: e29e 01be 8cb6 b13d 9544 5bbe 9594 b13d
00000090: aa52 d7bd 2016 073e 1a03 373e 0b11 373e
000000a0: 5454 23be 0c9d c7bd 3726 17be dcec 2dbe
000000b0: cf1c 9ebd d618 133e 5a02 293e eb95 bb3d
000000c0: db70 113e eb3b 823d 6548 803e 6e64 21bd
000000d0: fd77 47bd d106 7d3e b3de 903c 2c2f a03d
000000e0: a19e 173e 5481 5abc 1b45 c1bb 71ee debd
000000f0: 0bde 8a3c 3d5f ba3c 8c9a e0bc 14a1 893d
00000100: ff74 553e a513 0fbe 2c17 08bd e24a 853c
00000110: 3c86 80bd 1354 09bd c627 6cbd 5c70 3cbc
00000120: d9e4 033c 678d 2f3e e677 a93d a5a9 cf3d
00000130: 614e e8bd c6fc 0abe 00f1 edbd 4d67 31be
00000140: 6c36 1b3e d811 813d 4d36 4fbe 2a1c 51bd
00000150: 6c6b a03d 800f 80be f749 183d 66ac c7bd
00000160: 3ed7 0e3e 11c4 6cbd e75d 5a3e 3ac2 33be
00000170: c387 cd3d 056b 143e aba4 0c3e 71db 693e
00000180: 8143 de3d dc9d 873d 7fae 5e3d 7ffd 943d
00000190: 6ecb ff3d cc78 babd f56e aa3d 2ff4 bb3c
000001a0: f883 a13c 9291 e73c d9a5 2ebe ce4e c3bd
000001b0: 238a 43bb 2d71 6bbd 7a02 38be 084c 363d
000001c0: 0e1e f23d 31de 073e 6ba4 0c3d 847f 073d
000001d0: 455e 3dbe 86bf d23c 367a d43d 6cc9 0bbe
000001e0: 789c 093e e0f9 14be 2123 dbbd d2b3 7c3b
000001f0: 2c38 c0bd d1d3 6e3c eb4e c4bd 4da2 d5bd
00000200: 64b8 0abe 4224 b7bd a8bf c33d 8844 9abd
00000210: fc24 fe3d 268c 1d3e edb3 85bd 4528 fd3d
00000220: f631 3a3e d51b acbd e6ef 5d3c 82ff 45be
00000230: b2d3 a3bc 649f 233c 6f00 78bc 392a cfbd
00000240: 35b0 053c 9003 193e 3b07 893e c2a8 30bb
00000250: 42f0 0cbe 65ce 123e 41cc 233e 382f 473d
00000260: cf98 4c3e 5a09 323d e69d 7a3c f000 e2bd
00000270: e1a3 e33d 6daf 163e 2532 873e 0c1c d4be
00000280: 4bf8 babd 5f4a f83d 6291 6a3d 17ef 6c3d
00000290: fb24 773e 4a82 343d 0241 dcbb ef45 26be
000002a0: 845c 4abd bcb1 473e e8b1 ad3d 6256 143e
000002b0: a1df 3bbb 8912 7fbd 8322 b53c a4ad ffba
000002c0: ef21 92bd 4328 17be 51a3 a0bd f833 57bd
000002d0: 37c8 0a3e 21e5 1d3e e897 a8bd 0a14 22bd
000002e0: fae8 b6bd 06c6 063e 7391 033e 1feb 043e
000002f0: 9621 44bd 8a14 813d ec05 febd 3050 54bc
00000300: 491f 31bd 36f5 05bc b479 2abe b19e ee3d
00000310: 7284 e43b 76a2 263e d642 36be ecd1 16bd
00000320: be88 d73b ebe2 a9bc 619d 083e 2a4d 223d
00000330: b880 9f3d 1ab3 b3bc 0eff 823e eca2 f63d
00000340: 2243 acbd 6a9e 61be efdf c6bc 45d8 1ebd
00000350: f6dd 593e f6f3 1d3c 2c08 dcbd 63a9 c03d
00000360: 7821 0abe c63a 4b3e 6fff d73d 883d 403e
00000370: e650 483d a4bc 183c 863c f83b a87e 043e
00000380: eaff 67bd 0e39 b7bc 4c53 f1bd 8a51 533d
00000390: c64a 44bd f5d6 26be d176 25be 2001 12be
000003a0: 770f ab3c 1195 b63d 67a5 f6bc 6138 e33d
000003b0: da9e 273d 0162 d4bd 29b0 bb3d 1334 0a3e
000003c0: 1d60 67bc 205c df3c ac11 9cbe 7e77 3bbe
000003d0: 9857 393e bbd2 7e3e 803b d43d 2d4b ad38
000003e0: 967a 363d ba55 293e 0b9b 63bc d3fb 22be
000003f0: 956e a6bd 01a7 fa3b 6adc 553e de46 1bbe
-0.0872374 -0.15646215 0.056890674 0.06731989 -0.010054906 -0.22905162 0.06639003 0.18333246
-0.11216084 -0.19610551 0.14366977 0.0033806122 0.055508938 0.1287304 -0.16555266 0.14514208
0.056906756 -0.07055572 -0.02150471 -0.18262914 0.0023783229 0.12679231 -0.058831017 -0.09404258
-0.013834899 0.16958515 0.03936759 -0.21436831 -0.016236616 0.05977246 0.23111396 -0.111526676
-0.12658265 0.08677396 -0.2141288 0.08670918 -0.10513814 0.13192034 0.17872277 0.17877595
-0.15950137 -0.09746751 -0.14760672 -0.16984886 -0.077203386 0.14364943 0.16504803 0.09159454
0.14203207 0.06359085 0.25055233 -0.039402418 -0.048698414 0.24709632 0.017684316 0.07821497
0.14806606 -0.013336498 -0.0058981306 -0.10885323 0.016951581 0.022750491 -0.027417444 0.06720176
0.20845412 -0.13972338 -0.033225223 0.016271058 -0.06275603 -0.033527445 -0.05765512 -0.011501398
0.008050167 0.17143784 0.08274822 0.10139779 -0.113430746 -0.13572988 -0.11618233 -0.17324562
0.15157479 0.063022316 -0.20235558 -0.05105225 0.07832989 -0.25011826 0.037179913 -0.09749679
0.13949296 -0.05780417 0.21324883 -0.1755456 0.1003566 0.1449395 0.13734691 0.22837617
0.10852719 0.06621906 0.05436563 0.07274913 0.12489973 -0.091050714 0.083219446 0.022943584
0.019716248 0.028267656 -0.17055453 -0.09536515 -0.0029836975 -0.05748098 -0.17969695 0.044506103
0.11822139 0.13268353 0.03433649 0.033080593 -0.18492992 0.025726091 0.103748724 -0.13651055
0.13438594 -0.14548445 -0.1070006 0.003855933 -0.09385714 0.014576868 -0.09585365 -0.10431347
-0.13546902 -0.089424625 0.0955804 -0.075326025 0.12409398 0.15385494 -0.06528459 0.123611964
0.18183121 -0.08403746 0.013545966 -0.1933575 -0.019998405 0.009986732 -0.015136822 -0.10115475
0.008159687 0.14942765 0.2676333 -0.0026956056 -0.13763526 0.14336546 0.15995885 0.048629016
0.19980167 0.04346595 0.015296435 -0.11035335 0.11115242 0.14715357 0.26405445 -0.41427648
-0.091293894 0.1212356 0.057267554 0.0578452 0.241352 0.044069566 -0.0067216167 -0.16237615
-0.049404636 0.19501394 0.084811985 0.14486077 -0.0028667229 -0.062273536 0.022111183 -0.0019506705
-0.071353786 -0.14761452 -0.0784365 -0.052539796 0.13552938 0.15419437 -0.08232099 -0.039569892
-0.089311555 0.13161477 0.12848453 0.12980317 -0.047883593 0.06302746 -0.12403473 -0.012958571
-0.043242726 -0.008176139 -0.16647989 0.11651362 0.0069737965 0.16272911 -0.17798933 -0.03682129
0.0065775802 -0.020738086 0.13341285 0.03962437 0.07788223 -0.021935988 0.25585216 0.12042794
-0.08411242 -0.22033086 -0.024276702 -0.03878047 0.21276078 0.009640684 -0.10743746 0.09407308
-0.1348933 0.19846639 0.10546767 0.18773472 0.048905276 0.009322319 0.0075755743 0.1293894
-0.056640543 -0.022366073 -0.11783466 0.051591434 -0.047922872 -0.16292937 -0.16158606 -0.14258242
0.020881398 0.08915151 -0.030108167 0.11094738 0.040922977 -0.10370255 0.09164459 0.13496427
-0.014122036 0.027265608 -0.30482233 -0.18307301 0.1809982 0.24885075 0.10362911 8.2632854e-05
0.0445505 0.16536608 -0.013891946 -0.15916376 -0.081265606 0.007649303 0.20884863 -0.15163752

bias_ih_l0 f4 [128]
00000000: 674b 88bc f39c 573d d5a8 a9bc e76f 9e3d
00000010: 3861 31bd 7da1 6cbc e5c1 38bc 5e56 ebbb
00000020: 40c8 c23c 0b02 4b3c 2b95 6bbd b56c 093c
00000030: c6d7 9abc a6c4 893d 3908 a83c 024c 823a
00000040: 8fe8 bdba b503 1bbb d914 3abc 4434 90bc
00000050: 5c9e 9abc 2c5f 813c abb6 00bc 14b8 7dbc
00000060: 154f 61bd 2543 693d 27dc 233c 6705 11bc
00000070: c36d a8bc 6a61 9cbb 9414 edbb dc5d 39bd
00000080: 503e 95bc 9a39 4b3d 8dec a939 a5b1 e8bc
00000090: d963 1f3c 2d1f ac3c b23a d4bc 4658 22bd
000000a0: 9d02 36bc 266e e8bb 456b ebbc 6f22 4ebd
000000b0: a276 893d 403e b13c 8f0c e13b 071c 353d
000000c0: 36e9 b1bc 313f 3f3d 8af1 26be fc13 4c3d
000000d0: 27b4 e1bc 1c01 1cbd f6ae a1bd 3e75 983b
000000e0: f605 9639 6c8f ad3d 104a 7f3d 3676 dabc
000000f0: 4c39 c73b f36a 863c e7b0 75bd 96ba 49bd
00000100: cef7 e13c c92e 453d f2bb 15bd 64a6 1f3c
00000110: d162 653d 4fdb 743c 7468 14bd db80 2d3a
00000120: 8ebb 5f3a 0927 873b 9f98 523d b0ef 753a
00000130: c426 08bc b217 65bd cd90 f23c aa87 cc3c
00000140: 4602 8fbd 5448 8a3d ec21 c03c ce81 053d
00000150: 02ed 9abd 2298 8ebc face 43bd a911 89bc
00000160: faca bcbd 8a4f 7e3d fc06 94bc a4c1 803c
00000170: 14de 523a bcbc 583d 0f60 7abd be35 c2ba
00000180: 5362 af3c b87d d1bc 1a47 9bbd c90a 1abc
00000190: 5d6c 6bbd 0e82 4dbd 45f3 cf3c c971 bbbb
000001a0: 5803 a33a 33ac 3fbd 0c73 3ebc e90e 4c3c
000001b0: 38e7 ecbd 5991 14bd 19c3 b83a e377 5ebd
000001c0: 8ad1 49bd 0c12 d53c 300b 7f3c 8128 283c
000001d0: 4144 20bd df6c 083d 9a5e 313c ce67 c9bc
000001e0: 7b3a 293d 06ff 543d 4053 e8bc ba3d 353d
000001f0: dc98 49bc c9ff 87bc 07e4 73bd 45cf 893d
-0.016637517 0.052639913 -0.020710388 0.077361874 -0.043305606 -0.014442799 -0.011276697 -0.0071819266
0.023777127 0.012390624 -0.057515305 0.008387734 -0.018901717 0.06726961 0.020511733 0.0009940865
-0.0014488864 -0.0023653333 -0.0113575095 -0.017603047 -0.01887434 0.015792452 -0.007856051 -0.015485782
-0.05500706 0.0569488 0.010001219 -0.008851386 -0.020560151 -0.004772355 -0.007235119 -0.045255527
-0.01821819 0.04961548 0.00032410436 -0.02840502 0.009728395 0.02101096 -0.025906894 -0.039634965
-0.0111090215 -0.007093209 -0.028737674 -0.050325807 0.067120805 0.021636128 0.006867952 0.044216182
-0.021717649 0.046691123 -0.16303077 0.049823746 -0.027551724 -0.038086995 -0.07894699 0.0046526482
0.0002861467 0.08474621 0.06232649 -0.026667695 0.0060798284 0.01640842 -0.05998316 -0.049250208
0.027583983 0.04814032 -0.03655619 0.00974426 0.05600244 0.014944865 -0.036232427 0.0006618627
0.0008534723 0.0041245264 0.051415082 0.00093817245 -0.008310024 -0.0559308 0.029610062 0.024967033
-0.069828555 0.06752077 0.023453675 0.032594495 -0.07564737 -0.017406527 -0.04780481 -0.016732054
-0.09218402 0.062087573 -0.018069737 0.015717335 0.00080439565 0.052914366 -0.061126765 -0.0014817042
0.02140919 -0.025572643 -0.07581921 -0.009401985 -0.05747639 -0.050172858 0.025384555 -0.0057203514
0.001243691 -0.04679508 -0.011624109 0.012454727 -0.11567539 -0.036271427 0.001409623 -0.05431355
-0.049272098 0.026009582 0.015566632 0.010263563 -0.039127592 0.033306953 0.010825777 -0.02458563
0.041315537 0.05200102 -0.02836001 0.04424832 -0.012304511 -0.01660146 -0.059543636 0.06728987

bias_hh_l0 f4 [128]
00000000: 674b 88bc f39c 573d d5a8 a9bc e76f 9e3d
00000010: 3861 31bd 7da1 6cbc e5c1 38bc 5e56 ebbb
00000020: 40c8 c23c 0b02 4b3c 2b95 6bbd b56c 093c
00000030: c6d7 9abc a6c4 893d 3908 a83c 024c 823a
00000040: 8fe8 bdba b503 1bbb d914 3abc 4434 90bc
00000050: 5c9e 9abc 2c5f 813c abb6 00bc 14b8 7dbc
00000060: 154f 61bd 2543 693d 27dc 233c 6705 11bc
00000070: c36d a8bc 6a61 9cbb 9414 edbb dc5d 39bd
00000080: 503e 95bc 9a39 4b3d 8dec a939 a5b1 e8bc
00000090: d963 1f3c 2d1f ac3c b23a d4bc 4658 22bd
000000a0: 9d02 36bc 266e e8bb 456b ebbc 6f22 4ebd
000000b0: a276 893d 403e b13c 8f0c e13b 071c 353d
000000c0: 36e9 b1bc 313f 3f3d 8af1 26be fc13 4c3d
000000d0: 27b4 e1bc 1c01 1cbd f6ae a1bd 3e75 983b
000000e0: f605 9639 6c8f ad3d 104a 7f3d 3676 dabc
000000f0: 4c39 c73b f36a 863c e7b0 75bd 96ba 49bd
00000100: cef7 e13c c92e 453d f2bb 15bd 64a6 1f3c
00000110: d162 653d 4fdb 743c 7468 14bd db80 2d3a
00000120: 8ebb 5f3a 0927 873b 9f98 523d b0ef 753a
00000130: c426 08bc b217 65bd cd90 f23c aa87 cc3c
00000140: 4602 8fbd 5448 8a3d ec21 c03c ce81 053d
00000150: 02ed 9abd 2298 8ebc face 43bd a911 89bc
00000160: faca bcbd 8a4f 7e3d fc06 94bc a4c1 803c
00000170: 14de 523a bcbc 583d 0f60 7abd be35 c2ba
00000180: 5362 af3c b87d d1bc 1a47 9bbd c90a 1abc
00000190: 5d6c 6bbd 0e82 4dbd 45f3 cf3c c971 bbbb
000001a0: 5803 a33a 33ac 3fbd 0c73 3ebc e90e 4c3c
000001b0: 38e7 ecbd 5991 14bd 19c3 b83a e377 5ebd
000001c0: 8ad1 49bd 0c12 d53c 300b 7f3c 8128 283c
000001d0: 4144 20bd df6c 083d 9a5e 313c ce67 c9bc
000001e0: 7b3a 293d 06ff 543d 4053 e8bc ba3d 353d
000001f0: dc98 49bc c9ff 87bc 07e4 73bd 45cf 893d
-0.016637517 0.052639913 -0.020710388 0.077361874 -0.043305606 -0.014442799 -0.011276697 -0.0071819266
0.023777127 0.012390624 -0.057515305 0.008387734 -0.018901717 0.06726961 0.020511733 0.0009940865
-0.0014488864 -0.0023653333 -0.0113575095 -0.017603047 -0.01887434 0.015792452 -0.007856051 -0.015485782
-0.05500706 0.0569488 0.010001219 -0.008851386 -0.020560151 -0.004772355 -0.007235119 -0.045255527
-0.01821819 0.04961548 0.00032410436 -0.02840502 0.009728395 0.02101096 -0.025906894 -0.039634965
-0.0111090215 -0.007093209 -0.028737674 -0.050325807 0.067120805 0.021636128 0.006867952 0.044216182
-0.021717649 0.046691123 -0.16303077 0.049823746 -0.027551724 -0.038086995 -0.07894699 0.0046526482
0.0002861467 0.08474621 0.06232649 -0.026667695 0.0060798284 0.01640842 -0.05998316 -0.049250208
0.027583983 0.04814032 -0.03655619 0.00974426 0.05600244 0.014944865 -0.036232427 0.0006618627
0.0008534723 0.0041245264 0.051415082 0.00093817245 -0.008310024 -0.0559308 0.029610062 0.024967033
-0.069828555 0.06752077 0.023453675 0.032594495 -0.07564737 -0.017406527 -0.04780481 -0.016732054
-0.09218402 0.062087573 -0.018069737 0.015717335 0.00080439565 0.052914366 -0.061126765 -0.0014817042
0.02140919 -0.025572643 -0.07581921 -0.009401985 -0.05747639 -0.050172858 0.025384555 -0.0057203514
0.001243691 -0.04679508 -0.011624109 0.012454727 -0.11567539 -0.036271427 0.001409623 -0.05431355
-0.049272098 0.026009582 0.015566632 0.010263563 -0.039127592 0.033306953 0.010825777 -0.02458563
0.041315537 0.05200102 -0.02836001 0.04424832 -0.012304511 -0.01660146 -0.059543636 0.06728987

weight_ih_l1 f4 [128, 128]
00000000: 9ab7 54bb 5ed6 8cbd fd1c b53d 4437 33bd
00000010: abd8 05be 363d 9d3c 1f29 563e 2c79 11be
00000020: 72de 44bc 2fb7 393d c5ec 393d 66db 29bd
00000030: b8cc 10be 2aea 923d 36f9 703a 00a8 b5bd
00000040: c4af 683d ebe6 28be 6d13 d73d e978 e03d
00000050: ab85 04be a2b6 1ebb 93aa 5cbd 2bd4 b03d
00000060: 8b04 36be 9167 42bc 03ce aebd b0bb 7f3c
00000070: 8433 1a3d 75c7 173e 5712 d83d cb3f dfbb
00000080: 94a7 753e 9d93 efbd 6c83 bcbd a38d 5abd
00000090: 6b97 f73d 5d09 a6bd cac6 2c3d fb97 9e3d
000000a0: ccad 863d 10b5 60be 877e 0f3e b3e1 85be
000000b0: 241a 12be 3f75 a6bd e9c8 25bd 2695 02be
000000c0: f6f7 10bc ae0b 643e a3db 6a3d 4f38 b4bd
000000d0: 0658 3dbd 8b3c 2ebe 7e25 a1bd ae8d 2f3e
000000e0: 2d6d 0abe 226b 273d 3248 283e fe5b 893d
000000f0: 595e d23c c56c e53d 53c4 0fbe 9e8d 463e
00000100: d015 c3bd 9bcb 513e 49ab 133e 753b 0dbd
00000110: bf8f 03be f192 8abd 4ba5 6b3d f146 3c3e
00000120: d7a1 2abe 77d9 1d3c 044d 41be dee9 f23d
00000130: c970 93bc a418 1cbe 5468 2bbe d657 073e
00000140: 0257 94bd 1f61 3cbe 6f16 e63d 23f4 bdbc
00000150: 56c5 a63d c81c e7bc 9f06 6fbe a16f b93d
00000160: 8608 e6bd 6727 233e 2ad5 0e3e cbb7 86bc
00000170: 1e4c e03c 816b 2fbe bdc6 bf3c 4a32 fcbd
00000180: e722 f03d 8545 47be 57b1 d8bd ba8c 473d
00000190: aae4 543c d46c b7bd 6161 183e ad9c e73d
000001a0: 56f9 0ebe 7f7c b8bd d0af e5bc 879e f13d
000001b0: a61a 7b3d ca15 013e 8d28 23be a742 b93d
000001c0: fb3d 123e 3a66 eebd 2307 37bc d050 a3bd
000001d0: 2e4b df3c e787 7c3c 4a6c a03b 276f 693c
000001e0: 5652 813d 6422 c7bd a130 78bd 0765 5d3d
000001f0: bebb b83d 8883 a63d 33a6 a8be 2300 b73c
00000200: b941 ffbd 3863 fbbd bee0 6dbd dbf6 76bd
00000210: a9b1 0c3d 9c74 2abc 9c20 c43d db45 94bc
00000220: 2cba 863d e735 c6bd 8c3a 623d 0ff0 d8bd
00000230: ae09 a23d b7e4 103e a88a d23d 09f8 bdbc
00000240: 6fe4 363d 508d ddbd a6f5 ccbd 216e 683e
00000250: a375 e33c e4a6 e83c cc95 0ebd b099 7f3e
00000260: 78cc 79bd ab6e 8dbd 344f 3dbe 6ccd 3f3e
00000270: b58a 093d 06cd d4ba 11da 2dbb 4bff 68bb
00000280: dc45 c73d f872 b23d aeca 6dbd 9e80 123e
00000290: 44be 24be 66ae 6c3d 7fbf 1e3e ca18 97bd
000002a0: 00aa 4bbe 942b 25be baa6 5abd f02f 07be
000002b0: 41e5 573e 752e 613e b556 073e a1da 70be
000002c0: 5739 153c 2c14 a33d d03c 9abd 07e3 bc3b
000002d0: 050a a43d 71ad 19bd 29fe 42be 7859 553e
000002e0: b598 c2bd 82ef 1ebd f94c acbc eec4 aebc
000002f0: b840 b3bd ade2 20be f710 0dbd 6fed 1bbe
00000300: d039 9dbd 6ba6 0e3e 34d7 ecbc a1e8 2dbe
00000310: a7d9 dd3d bbec 01bc 8248 49bd 06fe 03be
00000320: dc94 86bc 07ec 78bd 7262 b7bd 95ac 35bd
00000330: 8989 7fbe 12a7 8bbd e2af 87bd 26b3 0cbe
00000340: 0d7e 14bd 6121 b73d 99ca 38bd aa7d 813d
00000350: b036 8bbd d7e2 2fbd b130 8dbd b4f4 293e
00000360: 86a8 d1bd 60c6 23bd 1546 993d 4db7 db3c
00000370: db8a ac3d 6d72 0f3e f68e 9b3d f79b d93d
00000380: 8c93 eb3d 496c f73d ddfb f63d b0ed dd3d
00000390: 9020 84be 3e71 04b9 8fce 9cbd c57a 6abe
000003a0: 1a11 09bd ce28 94bd 58da 113e 1a3a 663e
000003b0: f248 a0be 8695 2a3e 8d74 a8bc 392c df3c
000003c0: 2c9c 943d f06a 1a3e 5e3a 38be d9f8 cf3d
000003d0: 7907 b4bd 4cda 123e 1e50 63be d300 033e
000003e0: 7bcf 8fbd df4d 08bd 34be a53d d694 31be
000003f0: 038b 333d 145b 1d3a 9aa2 07be 7431 89bc
-0.0032458068 -0.06876825 0.0884342 -0.043753877 -0.13070934 0.019194227 0.20914124 -0.1420638
-0.012015926 0.045340713 0.045391817 -0.041469 -0.14140594 0.071735695 0.0009192409 -0.08869934
0.05680825 -0.16494338 0.10501752 0.10960562 -0.12941615 -0.0024217744 -0.05387361 0.08634218
-0.1777517 -0.0118655125 -0.08535387 0.015608713 0.037646785 0.1482218 0.10550373 -0.0068130246
0.23989707 -0.11698077 -0.09204754 -0.05335773 0.120894276 -0.08107255 0.042181768 0.07743832
0.06576118 -0.2194407 0.1401311 -0.26148757 -0.14267784 -0.08127832 -0.040474806 -0.12752208
-0.008848181 0.2227008 0.05733837 -0.087998025 -0.046226524 -0.17015283 -0.07868479 0.1714389
-0.1351821 0.040873654 0.1643379 0.06706999 0.025679754 0.11202387 -0.14039735 0.1938996
-0.09525645 0.20487826 0.14420809 -0.03448053 -0.12847804 -0.06766308 0.057530683 0.18386437
-0.166633 0.009634367 -0.18877035 0.11861013 -0.017998116 -0.15243775 -0.16739017 0.132171
-0.07243158 -0.18396424 0.112347476 -0.023187703 0.081431076 -0.028211966 -0.2334237 0.09054495
-0.112320945 0.15933 0.13948503 -0.016445061 0.027380046 -0.17130853 0.023410195 -0.123142794
0.11725407 -0.19460113 -0.105807 0.04871819 0.012993971 -0.08956304 0.14880897 0.113091804
-0.13962302 -0.09008121 -0.028037935 0.11797815 0.06130471 0.12605968 -0.15933438 0.09045916
0.14281456 -0.11640592 -0.011171135 -0.07974398 0.027257528 0.015413261 0.0048957216 0.014247692
0.063145325 -0.09723356 -0.06059325 0.054051425 0.09020184 0.08130556 -0.329393 0.022338932
-0.124637075 -0.12274784 -0.05807566 -0.060294013 0.034349117 -0.010403778 0.09576532 -0.018099716
0.06578478 -0.0967825 0.055231616 -0.105926625 0.079120025 0.14149748 0.10280353 -0.023189561
0.044651445 -0.10817969 -0.10007791 0.22698261 0.027766054 0.028399892 -0.034810826 0.24960971
-0.060986012 -0.06905874 -0.18487245 0.18730706 0.033579547 -0.0016235418 -0.0026527683 -0.0035552557
0.097301215 0.08713335 -0.05805462 0.14306876 -0.16088206 0.057783507 0.15502737 -0.07377775
-0.19889069 -0.16129905 -0.05338166 -0.1320188 0.21083547 0.21990378 0.1321667 -0.235209
0.009107909 0.07962832 -0.0753113 0.0057643685 0.080097236 -0.037518922 -0.19042267 0.20834911
-0.09501783 -0.03880263 -0.021032797 -0.021334138 -0.087525785 -0.1571147 -0.034440007 -0.15227292
-0.076770425 0.13930671 -0.02891121 -0.16983272 0.108325295 -0.007929976 -0.049141414 -0.12889871
-0.016428404 -0.06077197 -0.08954324 -0.04435404 -0.24954809 -0.068189755 -0.06625344 -0.13740215
-0.036253024 0.089419134 -0.045115087 0.06322797 -0.0679754 -0.04294094 -0.06894053 0.16597253
-0.102372214 -0.039984107 0.0748407 0.026820803 0.08424922 0.14008494 0.07595627 0.10625451
0.11502752 0.12081201 0.12059758 0.10836351 -0.25806093 -0.00012630687 -0.076565854 -0.22898395
-0.033463575 -0.072343454 0.14243448 0.22483101 -0.31305653 0.16658601 -0.020563388 0.027242767
0.0725635 0.15079856 -0.17991015 0.10154886 -0.08790488 0.14341086 -0.22198531 0.12793283
-0.07021996 -0.03327739 0.08092919 -0.17341933 0.043833744 0.00060026464 -0.13245621 -0.016747214

weight_hh_l1 f4 [128, 128]
00000000: 2764 033d dfc9 e53c 6fda 5dbb fa77 473a
00000010: 369d 45bc 5b5e 833d aeae 0e3e da4b cbbd
00000020: 5a62 1ebe a284 e3bd 4f0a e9bd 1804 db3d
00000030: 673a a73c 7880 21be bca1 ab3c 4350 e1bd
00000040: 9475 923c 6a0d b5bd 5a54 773e 4c60 983d
00000050: 7f58 083d f27b 553e 6930 213d 8efe 7ebe
00000060: bd1b 413e dd26 863d c627 a33c da6b adbc
00000070: 220f 7c3d 6829 11bd 98ad 573d 6ffe 49be
00000080: e65d 9a3e 1460 13be 48f9 813d f98e 0dbe
00000090: 4f18 1dbe 8805 c6bd 548f 6ebe b2ba e73c
000000a0: 8610 0e3e 5899 eb3d aebd 293e 04a1 4bbe
000000b0: 15f6 343e 183b e43c 3a7a 8abd 9d2b 763d
000000c0: 470e b33c d983 efbd 0a69 e53d 8352 703c
000000d0: 04f7 8f3e 7349 233d 3f74 693c 2b4c 393e
000000e0: 45a6 e6bc a938 61be 536d 003e 434a 86bd
000000f0: 2191 b13d 61b1 b73d c3e7 1fbe d627 033e
00000100: dd72 f8bd 719b 84ba 87c5 cfbd d97d 0abe
00000110: 7344 22be 7448 a53c 2363 85bd c22d 743d
00000120: 23bc 823d 141e e33c 170e 743d f7c3 ef3d
00000130: e91e 7a3d 0c9b 0bbd c347 e63c 5449 28be
00000140: 0cfd 1f3e 78d6 68bd 5a33 77bd ca4f 6fbc
00000150: 8447 26bc a028 acbc 977b f2bd 8a73 e63d
00000160: acf6 303c 5479 74bd d3d2 bf3b 8c3a 96bd
00000170: 455e e33c fb10 903d d883 90bc 4f4d db3d
00000180: 9477 57be 5351 113d 37af fcbd 1353 fbbd
00000190: 351f e63c 4594 16be 7cfc e13c 038d 46bd
000001a0: 5181 09be 4849 43be 580f 293b 92de 1e3e
000001b0: d4c0 153d 05d3 abbd d45b f83d 2727 18be
000001c0: 8743 fc3d aee8 dc3d 0f13 d5bd 8bcc 143d
000001d0: 183a e7bd ac6e d43c 5836 e83d ee01 bb3d
000001e0: fa40 453d 3f6d 13be 3462 563e feca b1bd
000001f0: 15c8 933d 1997 903d 95d0 80bd bd5f 1a3e
00000200: e0e1 5dbd a2a8 5ebe 721c 06be 6b1b 823d
00000210: 5cca 883d 9bc3 bf3c 61c1 f9bd a727 88bd
00000220: 6557 21bd 47b6 01bd 71a5 5e3e 9615 0c3e
00000230: 2fb9 28bc 3a02 bf3c c2a8 253e 2a19 463d
00000240: ac66 e73d 0f8c 0fbe 1c89 7e3c 6148 43bd
00000250: f3a9 0ebd 4313 343c b50f 99ba 6bc8 0138
00000260: e124 c13d 7f28 e03d ea82 9bbd af5b 20bc
00000270: ec2c b83d 0349 323d 9b5c 523e 07e5 05bd
00000280: 4574 843d 8552 41bd ae9c 283d ffa4 e03d
00000290: 8259 943b ff38 643e d7aa 213d 1e06 74bd
000002a0: 0ca9 163e 9c53 1e3e 3ae3 ce3d c1c1 8bbd
000002b0: fb46 c93c b3b0 a3bd 6f3e 50bd b636 793d
000002c0: c069 1ebd dcf4 a33c 78fd 82bd 09e9 a53d
000002d0: db3e 993c efb6 9ebd 8adf b23d 43eb 323e
000002e0: 1363 afbd 65b5 433e b903 bfbd 6c75 2f3e
000002f0: e228 53bd 761e e33d 6a64 093d 30f8 56bd
00000300: 2b6a ed3d 1b21 3abe 637c 27bd 7b8f 5ebd
00000310: 97ca 15be 2e1c 01bc 2789 053e 32db df3d
00000320: 5e83 843e 82a4 9e3d 5387 b4bd b3b6 a1bd
00000330: 110e 06bd bae9 b73b 1931 04be e9c6 b23d
00000340: eb18 3ebe eb72 4bbe 75dd 183e 8a7e f83c
00000350: ce56 ca3d 4dbc ca3c 2bfc ae3b f87e d6ba
00000360: db01 edbb 1e43 2a3d af7b de3d 7a1b 8e3d
00000370: 78ac 0f3e 57f1 b2bb cd91 613b ad1c 87be
00000380: d982 d9bb bb25 5f3c 21a8 2ebe eef1 a1bd
00000390: 564d 00be 27bb 8fbd 16dc 1fbe 1040 163e
000003a0: 150d f63d 19cf ea3c afc0 c3bd b9b9 923d
000003b0: 6237 223d 4f43 e23d 639c b1bc 8288 46bd
000003c0: 30b9 d53d 3a4d 873d 5dfc 323e cdc4 acbd
000003d0: 1df8 063d b847 8c39 5883 82bd dc2d be3c
000003e0: bd28 13bc c36a b5bd 4bfa 9f3d 5054 2d3e
000003f0: 10fd 463d 36f5 f7bb a012 3fbd 68e4 82bd
0.032077935 0.028050361 -0.003385212 0.00076091255 -0.012061408 0.06414481 0.13933823 -0.09926577
-0.15467206 -0.11109282 -0.11378919 0.1069414 0.02041359 -0.15771663 0.020951144 -0.11001637
0.017878331 -0.08840449 0.24153271 0.07440242 0.03328752 0.20848063 0.03935281 -0.24901792
0.18858238 0.06550381 0.019916426 -0.021169592 0.06153787 -0.03543988 0.052655786 -0.19725965
0.30149764 -0.1439212 0.06346375 -0.13824071 -0.15341304 -0.09669024 -0.23296863 0.028287265
0.1387349 0.115038574 0.16576263 -0.19885641 0.17671998 0.02786021 -0.06761594 0.060100187
0.021857394 -0.1169507 0.11201675 0.01466811 0.28118145 0.03986497 0.014248907 0.18095462
-0.028155455 -0.2199427 0.12541704 -0.06557133 0.08670259 0.08969379 -0.15615754 0.12808165
-0.121312834 -0.0010117126 -0.10145097 -0.1352457 -0.15846424 0.02017615 -0.065130495 0.05961395
0.063835405 0.027724303 0.05958375 0.11707299 0.061064634 -0.03408341 0.02811039 -0.16434222
0.15623873 -0.05684516 -0.060351707 -0.014606426 -0.010148887 -0.021015465 -0.11839979 0.11252506
0.010800999 -0.05968602 0.0058539896 -0.07335386 0.027754912 0.07034489 -0.017640993 0.10708105
-0.21041709 0.035477947 -0.12338107 -0.122717045 0.028091053 -0.14704998 0.027586214 -0.048474323
-0.13428237 -0.19070923 0.00257965 0.15514591 0.03656085 -0.08389858 0.1212689 -0.14858685
0.12317567 0.10786568 -0.10404026 0.03632788 -0.112903774 0.025931679 0.1133849 0.091312274
0.04815767 -0.14397143 0.20935899 -0.08681296 0.07215897 0.070600696 -0.06289784 0.15075584
-0.05417049 -0.21744016 -0.13096789 0.06352886 0.06679222 0.023408702 -0.12195087 -0.06648188
-0.039389987 -0.031667974 0.21742798 0.1368011 -0.010298057 0.023316491 0.16177657 0.048363842
0.1129888 -0.14018272 0.015535619 -0.047676448 -0.034830045 0.0109909205 -0.0011677655 3.094265e-05
0.09430862 0.10945224 -0.07593329 -0.009787484 0.08992943 0.04352666 0.20543139 -0.03268912
0.06467489 -0.047197837 0.041165046 0.109689705 0.0045272717 0.22287367 0.039469566 -0.059576146
0.14712924 0.15461582 0.10101934 -0.06824065 0.024569979 -0.07992687 -0.05084079 0.060843192
-0.03867507 0.020014219 -0.063960016 0.081010886 0.01870673 -0.077497356 0.08734043 0.17472558
-0.08563819 0.19112165 -0.09326882 0.17134637 -0.05155266 0.11089794 0.033543028 -0.052482784
0.115925156 -0.18176691 -0.04089011 -0.054336052 -0.14628063 -0.007880254 0.130406 0.1093048
0.25881475 0.07746221 -0.088148735 -0.07896175 -0.03272826 0.005612579 -0.12909354 0.08729345
-0.18564193 -0.19868056 0.14928229 0.030333776 0.09879838 0.024747992 0.0053401194 -0.0016364744
-0.007232887 0.041567914 0.108634345 0.069388345 0.14030635 -0.005460899 0.003441918 -0.26389065
-0.0066379127 0.0136198355 -0.17056324 -0.079074726 -0.12529501 -0.07018118 -0.156113 0.14672875
0.12014214 0.028663205 -0.09558236 0.0716433 0.0396036 0.11047994 -0.021681016 -0.048470028
0.10435712 0.06606527 0.17479081 -0.08435974 0.032951463 0.00026756315 -0.06372708 0.023215227
-0.008981881 -0.08858254 0.078114115 0.16926694 0.048581183 -0.007567073 -0.04664862 -0.06391221

bias_ih_l1 f4 [128]
00000000: 532c e73d 978f e23d 3573 963d 5e10 01be
00000010: 9442 13be 7c4d a3bc 2024 b43d 6a9b aebd
00000020: a605 013d 5220 d4bc 15db 56bd f0ef 69bd
00000030: 9e22 143e 4beb a9bd d8d0 043e a7ab 173c
00000040: 4f24 1a3d 257a 24be 2946 243e 941f be3d
00000050: 4aa0 b2bd 18c4 cd3c 360c 893d 82a3 8ebd
00000060: 024d 8f3c c9a1 d5bc 62b2 a93d d48a 70bd
00000070: 9503 c7bc 9bfc 313d 73ce e9ba eb23 10be
00000080: 73bc e33d 9d60 933c 412f cebd b653 dc3b
00000090: 8050 4cbd b3d0 17bd 4f9b 9cbd 9999 a63b
000000a0: 04b7 03bd 0bc4 93bc 1351 f33b 5a0a 02bd
000000b0: 086c c23d 8262 9fbc 53f4 6bbb 9fb7 15bd
000000c0: c163 05bd e624 14bc b1de 14bd 201e 16bc
000000d0: 7c21 c03d 908c 093d 3314 dc3a 3b9c 8ebd
000000e0: bf46 14bc 5d35 48bd a3e9 f8bd 8500 b63d
000000f0: da39 5b3d abd3 4cbd 4a1b 86bd 9293 9bbc
00000100: b7d7 483d f203 3abe 3cea 24be e570 aebc
00000110: 01ef 313d 52b3 5ebd 1b31 1fbd 0fd7 a5bd
00000120: fdba 29bb f100 db3c 5d78 b93d 500d 683d
00000130: e32b dfbb b808 7c3c ebc9 123e 6cdb 9cbc
00000140: 6555 f33d b728 67bc f775 8fbd 3d28 22bd
00000150: d003 b73d 0059 9c3d 8060 7f3d 6a01 b63d
00000160: 838b bebd 36c9 46bd e47d 793c b324 0dbd
00000170: 3af8 edbd 23a4 9d3d 720a da3c 4d4e 5b3d
00000180: 01c4 9bbd dad6 29bd d35d 97bd c61d 9a3d
00000190: 7364 9c3d 663d a0bd ebf9 633d 55c2 31bd
000001a0: ab48 e53d 187a a0bd 1fa1 dd3c 2ff1 753c
000001b0: 2806 84bc d481 88bd 84f5 f2bc 0a5f 8b3c
000001c0: 5701 c53d f965 8f3c fc44 143d fa5b f4bc
000001d0: dfba f239 7767 b23c c83c 85bb 30f8 a53d
000001e0: 4426 903c 420f 82bd 6523 103d 4028 283c
000001f0: 2466 353d 41cd 85bc ea5f 163e e717 053d
0.11287751 0.11062544 0.07346193 -0.126039 -0.14380866 -0.019934408 0.08795953 -0.08525737
0.031499527 -0.025894318 -0.052455027 -0.057113588 0.1446633 -0.08296832 0.12970293 0.009257234
0.037632283 -0.1606222 0.16042389 0.09283367 -0.08721979 0.025117919 0.06691782 -0.069647804
0.017492775 -0.026078122 0.08285977 -0.058726147 -0.0242937 0.043453794 -0.0017838016 -0.14076202
0.11119928 0.017990405 -0.10067607 0.0067238463 -0.04988146 -0.037064265 -0.0764681 0.0050842282
-0.03215696 -0.018037817 0.0074254363 -0.031748153 0.094932616 -0.019456152 -0.0036003783 -0.036552068
-0.032565836 -0.009042 -0.036345188 -0.009162456 0.09381387 0.033581316 0.0016790688 -0.06963392
-0.00905007 -0.048879016 -0.12153938 0.08886818 0.05352197 -0.05000655 -0.06548174 -0.018991265
0.049033847 -0.18165568 -0.16104978 -0.021294067 0.043440823 -0.054370232 -0.03886519 -0.0809766
-0.0025898807 0.026733847 0.090561606 0.05665332 -0.0068106516 0.015382938 0.14334838 -0.019147597
0.11881522 -0.014108828 -0.07004922 -0.039589155 0.08936274 0.07634163 0.06234789 0.088869885
-0.093039535 -0.048531733 0.015227769 -0.034458827 -0.11619611 0.07697322 0.026616309 0.05354147
-0.07605744 -0.041464664 -0.073909424 0.0752521 0.07636347 -0.07824211 0.055658262 -0.04339822
0.11195501 -0.078357875 0.027054368 0.015011116 -0.016116217 -0.06665388 -0.029658087 0.017013092
0.09619396 0.017504679 0.0361986 -0.029829014 0.00046297067 0.021777852 -0.0040660836 0.08103979
0.017596371 -0.063505664 0.035190005 0.010263503 0.044286862 -0.016333224 0.14685026 0.0324935

bias_hh_l1 f4 [128]
00000000: 532c e73d 978f e23d 3573 963d 5e10 01be
00000010: 9442 13be 7c4d a3bc 2024 b43d 6a9b aebd
00000020: a605 013d 5220 d4bc 15db 56bd f0ef 69bd
00000030: 9e22 143e 4beb a9bd d8d0 043e a7ab 173c
00000040: 4f24 1a3d 257a 24be 2946 243e 941f be3d
00000050: 4aa0 b2bd 18c4 cd3c 360c 893d 82a3 8ebd
00000060: 024d 8f3c c9a1 d5bc 62b2 a93d d48a 70bd
00000070: 9503 c7bc 9bfc 313d 73ce e9ba eb23 10be
00000080: 73bc e33d 9d60 933c 412f cebd b653 dc3b
00000090: 8050 4cbd b3d0 17bd 4f9b 9cbd 9999 a63b
000000a0: 04b7 03bd 0bc4 93bc 1351 f33b 5a0a 02bd
000000b0: 086c c23d 8262 9fbc 53f4 6bbb 9fb7 15bd
000000c0: c163 05bd e624 14bc b1de 14bd 201e 16bc
000000d0: 7c21 c03d 908c 093d 3314 dc3a 3b9c 8ebd
000000e0: bf46 14bc 5d35 48bd a3e9 f8bd 8500 b63d
000000f0: da39 5b3d abd3 4cbd 4a1b 86bd 9293 9bbc
00000100: b7d7 483d f203 3abe 3cea 24be e570 aebc
00000110: 01ef 313d 52b3 5ebd 1b31 1fbd 0fd7 a5bd
00000120: fdba 29bb f100 db3c 5d78 b93d 500d 683d
00000130: e32b dfbb b808 7c3c ebc9 123e 6cdb 9cbc
00000140: 6555 f33d b728 67bc f775 8fbd 3d28 22bd
00000150: d003 b73d 0059 9c3d 8060 7f3d 6a01 b63d
00000160: 838b bebd 36c9 46bd e47d 793c b324 0dbd
00000170: 3af8 edbd 23a4 9d3d 720a da3c 4d4e 5b3d
00000180: 01c4 9bbd dad6 29bd d35d 97bd c61d 9a3d
00000190: 7364 9c3d 663d a0bd ebf9 633d 55c2 31bd
000001a0: ab48 e53d 187a a0bd 1fa1 dd3c 2ff1 753c
000001b0: 2806 84bc d481 88bd 84f5 f2bc 0a5f 8b3c
000001c0: 5701 c53d f965 8f3c fc44 143d fa5b f4bc
000001d0: dfba f239 7767 b23c c83c 85bb 30f8 a53d
000001e0: 4426 903c 420f 82bd 6523 103d 4028 283c
000001f0: 2466 353d 41cd 85bc ea5f 163e e717 053d
0.11287751 0.11062544 0.07346193 -0.126039 -0.14380866 -0.019934408 0.08795953 -0.08525737
0.031499527 -0.025894318 -0.052455027 -0.057113588 0.1446633 -0.08296832 0.12970293 0.009257234
0.037632283 -0.1606222 0.16042389 0.09283367 -0.08721979 0.025117919 0.06691782 -0.069647804
0.017492775 -0.026078122 0.08285977 -0.058726147 -0.0242937 0.043453794 -0.0017838016 -0.14076202
0.11119928 0.017990405 -0.10067607 0.0067238463 -0.04988146 -0.037064265 -0.0764681 0.0050842282
-0.03215696 -0.018037817 0.0074254363 -0.031748153 0.094932616 -0.019456152 -0.0036003783 -0.036552068
-0.032565836 -0.009042 -0.036345188 -0.009162456 0.09381387 0.033581316 0.0016790688 -0.06963392
-0.00905007 -0.048879016 -0.12153938 0.08886818 0.05352197 -0.05000655 -0.06548174 -0.018991265
0.049033847 -0.18165568 -0.16104978 -0.021294067 0.043440823 -0.054370232 -0.03886519 -0.0809766
-0.0025898807 0.026733847 0.090561606 0.05665332 -0.0068106516 0.015382938 0.14334838 -0.019147597
0.11881522 -0.014108828 -0.07004922 -0.039589155 0.08936274 0.07634163 0.06234789 0.088869885
-0.093039535 -0.048531733 0.015227769 -0.034458827 -0.11619611 0.07697322 0.026616309 0.05354147
-0.07605744 -0.041464664 -0.073909424 0.0752521 0.07636347 -0.07824211 0.055658262 -0.04339822
0.11195501 -0.078357875 0.027054368 0.015011116 -0.016116217 -0.06665388 -0.029658087 0.017013092
0.09619396 0.017504679 0.0361986 -0.029829014 0.00046297067 0.021777852 -0.0040660836 0.08103979
0.017596371 -0.063505664 0.035190005 0.010263503 0.044286862 -0.016333224 0.14685026 0.0324935

weight f4 [1, 128]
00000000: aca0 7abe 0a95 37bd 54f7 8ebe d541 97bd
00000010: 3d91 7b3e d30d 633c 0ba1 96bc ce7b 353e
00000020: c10f 19be cf3c 3b3d fd3f 9b3d dcab 17be
00000030: d65a 84be 59dd 5b3c 070f 4dbe 8ffb b93d
00000040: 7844 88bd 91a2 c23d 0b32 a7be e931 13be
00000050: ba76 5b3e 257b 5c3e 909c fabd fd89 efbd
00000060: 796f 943d 00f2 6c3d 95fa 1d3d 4772 cabd
00000070: a1c4 4d3e b617 a13d 1514 983d fa3b 5f3e
00000080: 45da 1e3d a4cf 2b3d c14a 55be f488 1bbe
00000090: 4b9c 43be 7cce 8bbe 39d2 1bbc e207 ae3e
000000a0: 1188 bcbd 5b80 f5ba 1bb1 d8bc 7326 a43d
000000b0: d98f a2bc f14d 9b3e cde8 82be c122 d63d
000000c0: 3dae b73d b9a2 823d ebf3 c03c 9136 973d
000000d0: db3c d4bd 74be 0f3e 9adb 0dbd 7763 513e
000000e0: 4e9e 5e3e ca15 843d 00fc 1c3d 3dd8 1cbe
000000f0: 7e77 f0bd e923 433c 62a0 7abe 753f e9bd
00000100: d030 a9bd 8c42 623e 8df0 2dbe 55a7 69bd
00000110: 446f 923d db70 b33c 25ae 95bd fd6c 603e
00000120: c714 a3bd 7040 c2bd 809c 6bbe fdb8 1b3e
00000130: 6531 b93d 663b 49bd 7193 17be fab4 313d
00000140: d478 c3bc 376c 5bbd 91b3 f0bd 369b 4c3e
00000150: b62b 8ebe c779 04be cfec c33d 2c51 24be
00000160: f2af 6c3e 2f1b e63c db8b cb3d 8a3a 25bc
00000170: 7db4 c43d d925 3fbe 009a 0d3e 5d64 443e
00000180: 2c6e 69be d87d 963e bf72 1bbb 03e7 54be
00000190: d029 84bd f6ba 64be 61b5 0bbe df0e 0f3e
000001a0: 1e9f 55be 8610 7d3d 5359 09be 2093 dbbd
000001b0: ed2a 1a3e d8eb b23d 23b8 07be 098d 27be
000001c0: 4b40 75bd 3f28 00be 845a 10be 303f 013e
000001d0: 9ba5 89bd 2823 eabb 36e6 a8bd bf8c a4bd
000001e0: 6380 fabd 42c7 623d b7bc ff3d b791 ba3d
000001f0: a8cd 8a3d 58cf aabb b574 2ebe 9c33 a03c
-0.24475354 -0.04481987 -0.2792307 -0.07385603 0.24567123 0.013858276 -0.018387338 0.17723009
-0.14947416 0.04571229 0.07580564 -0.14811653 -0.25850552 0.013419473 -0.20025264 0.09081184
-0.066536844 0.09503663 -0.32655367 -0.14374508 0.2143201 0.21531351 -0.12236893 -0.11696241
0.07247824 0.057847977 0.03856905 -0.09885078 0.20094539 0.078658506 0.07425705 0.21800223
0.038782377 0.04194607 -0.20829298 -0.15188962 -0.1910259 -0.27305973 -0.00951057 0.3399039
-0.0920564 -0.001873027 -0.026451638 0.08015146 -0.019843983 0.30332902 -0.25568238 0.104558475
0.0896878 0.06378693 0.02355381 0.073834546 -0.1036317 0.14037496 -0.034633256 0.20448099
0.21740076 0.064494684 0.038326263 -0.15316863 -0.11741541 0.011910417 -0.24475244 -0.113890566
-0.08261263 0.22095698 -0.16986294 -0.057044346 0.071501285 0.0219044 -0.07308606 0.21916576
-0.07962947 -0.09484947 -0.23008919 0.15207286 0.090426244 -0.049128912 -0.14802338 0.043385483
-0.023861326 -0.05357 -0.117529996 0.19981083 -0.27767724 -0.1293708 0.09566652 -0.1604659
0.23113993 0.028089134 0.09938785 -0.010084758 0.09604738 -0.18666781 0.13828278 0.1917891
-0.22795933 0.29392886 -0.0023719517 -0.20791249 -0.064532876 -0.22336945 -0.1364341 0.13970517
-0.2086148 0.061783336 -0.1341298 -0.10721421 0.15055437 0.0873639 -0.13253836 -0.16362394
-0.059875768 -0.12515353 -0.14097029 0.1262176 -0.0672104 -0.0071453042 -0.08247034 -0.08034658
-0.12231519 0.05536581 0.124871664 0.09109824 0.06777507 -0.0052127056 -0.17036708 0.01955586

weight f4 [128]
00000000: 9b46 29be 28cb 393e 1cca 763d c887 0cbe
00000010: 6753 04be 3ed5 59be 2fa2 58be f5e2 44be
00000020: d846 943e 22f4 93be 7066 9bbe b663 303e
00000030: 49a4 4dbe 2ef0 6f3e 521a 2d3e 2549 9dbe
00000040: c701 7e3e 97e6 a5bd 355b 223e f1d6 eebd
00000050: 7005 e83d e512 81be 71fb 67be 8bab c23d
00000060: 3bba 533e 824a 723e b776 613e b011 0a3e
00000070: 2b1a a8bd 461e 2c3e 9ea7 fabd 3042 58be
00000080: b391 0c3e dba5 8fbd d7f6 61bd 625f a3be
00000090: b07b 493e 54d0 64be 4f53 58be dfd6 2a3d
000000a0: 91e9 6d3e acec 343e 585d 643e c0fa 60be
000000b0: b354 7ebe 8bd8 2fbe 18fe dbbc dc94 15be
000000c0: 68a9 8c3e c6cd 0abe ca29 5fbe 5ff6 15be
000000d0: 0857 88bd ca31 11be f67e 653e ac44 2b3e
000000e0: 0182 50be 019c a0bd 0738 393e 7efe 53bc
000000f0: bac9 273e acf4 6fbe afd9 07bd 519a 64be
00000100: 1337 313e d866 443e daab 243d 871a 9f3e
00000110: ee18 60bd a5ab 9e3e 2038 573e 0db2 7a3e
00000120: 5c14 623e 0bb2 13be f6b7 533e aea3 71be
00000130: 5bd8 813e 1edb 903c f007 6c3e 57b4 e7bd
00000140: c3ef 593e 6490 a6bd 75b0 3abe d863 fbbd
00000150: 90f0 7fbe 0bad 51be 903e ffbd a348 453e
00000160: 09a1 1bbe 7620 2b3e 5dee 873e 5f1f 5dbe
00000170: 985b 3d3e 6422 693e 6fbf 3b3e 08f2 10be
00000180: 01de 8fbd bb65 063e 460b ab3e bd89 453e
00000190: fae3 49be 0825 283d abb6 65be 676b 53be
000001a0: 3769 29be 35e3 2e3e e525 5ebe 43ec 603e
000001b0: adbd 18be 7467 49be fdce 563e 52a8 67be
000001c0: bcb0 2ebe 17ed 133e 1c2b 943e 3413 993e
000001d0: c8ad 123e f72b 77be 403e 223e c92e 983e
000001e0: b6d3 373e e045 40be ddc5 0abe ff83 95be
000001f0: 55bc 873e 2be8 4f3e ba58 283e 3595 21be
-0.1653084 0.18143904 0.06025134 -0.13723671 -0.1292244 -0.21272752 -0.21155618 -0.19227202
0.289603 -0.28897196 -0.3035159 0.17225537 -0.20082201 0.23431465 0.16904572 -0.30719867
0.24805366 -0.08100622 0.15855105 -0.116620906 0.11329162 -0.25209728 -0.22654511 0.095053755
0.2067651 0.23661235 0.22017942 0.1348331 -0.08208116 0.16808423 -0.12239002 -0.21118999
0.13727455 -0.07014056 -0.055167045 -0.3190871 0.1967609 -0.22345096 -0.2112553 0.041708823
0.2323363 0.17668408 0.22301233 -0.21970654 -0.24836998 -0.17172448 -0.02685456 -0.14607567
0.27472997 -0.13555059 -0.21793285 -0.14644764 -0.06657225 -0.1417915 0.22411713 0.16725415
-0.20362093 -0.078422554 0.18087779 -0.012939094 0.16385546 -0.23433179 -0.033166584 -0.22324492
0.17306165 0.19179857 0.040202953 0.31074926 -0.054711275 0.3099033 0.21017504 0.24481983
0.22078079 -0.14423387 0.20675644 -0.23597595 0.2536038 0.017682608 0.23049903 -0.11313694
0.21282868 -0.08133009 -0.18231376 -0.12274903 -0.24994111 -0.20476167 -0.12463105 0.1926599
-0.15198149 0.16711602 0.26549044 -0.21593998 0.18491971 0.22767025 0.18334745 -0.14154828
-0.07024766 0.13124745 0.33407038 0.19290824 -0.19715872 0.04105094 -0.22432964 -0.2064644
-0.16544043 0.1707886 -0.21694143 0.21965127 -0.14916106 -0.1966837 0.20977397 -0.22622803
-0.17059606 0.14445911 0.2893914 0.29897463 0.14324105 -0.24137865 0.15844059 0.29723194
0.17951855 -0.18776655 -0.13552041 -0.29202268 0.26510873 0.20303409 0.16440096 -0.15779574

bias f4 [128]
00000000: fe27 e23d acef 3c3d 4921 7e3c 8c51 03bd
00000010: 791e 37bd efd8 eabb 076f f93c 0831 863d
00000020: 4f10 a1ba d865 a8bd 40a8 11bd 1185 1d3d
00000030: c6f8 883d 2678 95bc 1b12 56bc cf76 9b3c
00000040: 8d49 00bc eb9e 06bd 3c7d 75bd 895d 69bc
00000050: de9c 7dbc 3feb 653c 158d 2abb 0d59 113d
00000060: 3e3f 97bb 1013 ecbc 9a3f a4bc 2c1b 053c
00000070: 1394 143d 3b64 1dbd 215f 863c 1127 adbd
00000080: 9793 86bd 7959 b2bc 9e38 a3bb bbf6 2bbd
00000090: b46a 2c3d b84e b6bc f76e 3abd acf8 4bbc
000000a0: 19e5 bf3c ce32 0bbd 3592 803c bb09 e33c
000000b0: 3606 ca3d 338e 3a3d 4adc 9fbc 1953 12bd
000000c0: 0f1e 56bd e1e1 1ebb 23e2 2dbd cb8d e53c
000000d0: e1c2 bfbc d145 943b 82a0 6d3c ea27 d6bb
000000e0: eea9 793d e018 d23c b088 993d 8a6b d7bc
000000f0: 1264 24bc 4cf8 f93b 0267 1dbc ad90 a6bc
00000100: d576 35bd eafd ea3c 59a2 5d3c acc3 143d
00000110: a547 d13c 4521 433d 5121 af3c 8217 303b
00000120: 92e4 ebbc 6012 003d b5e4 a3bd 01a3 c4bb
00000130: ff97 43bd 2c95 8abc 027e 6fbd 99a3 183b
00000140: fc73 32bd acf1 58bd 25c9 a9bd 1842 383d
00000150: d9bb 653d 9181 403d ddca dcbc d607 92bc
00000160: 9273 2dbb 8b47 94bc 4c1a 90bd bf85 49bc
00000170: e9f0 8b3d 72cc c33c 51a3 9b3c d2d1 9e3c
00000180: 090f 49bd 1808 113d af7b bd3c d50b 8fbd
00000190: 5d04 d03b 04ec 623c 23bc 20bd f78c 0ebb
000001a0: 9890 46ba 9cb9 3c3d 5263 32bd 1f25 d7bd
000001b0: 5d08 893d 1b9f bd3c 6469 0a3d 5ce7 4bbd
000001c0: 1374 11bd 592e 9f3c 0cea c83c a767 683d
000001d0: 7034 5e3d b8a6 11bb 8d03 9e3c d91d 04bd
000001e0: a0a9 353d a39e e8bc b8c1 733d e41c 59bc
000001f0: fceb 97bd fbe1 4fbc bbf1 543a 5ff5 b73d
0.11042784 0.046127006 0.0155108655 -0.03206019 -0.044706795 -0.007166974 0.03044845 0.06552321
-0.0012288186 -0.0822255 -0.035560846 0.03845698 0.06688075 -0.018245768 -0.01306584 0.01897755
-0.007830036 -0.0328664 -0.059933886 -0.014243492 -0.015479295 0.014033138 -0.0026024033 0.035485316
-0.0046156934 -0.028817683 -0.020049859 0.008124154 0.036274027 -0.038425665 0.016402783 -0.08454717
-0.06571119 -0.02177118 -0.0049811145 -0.041983347 0.042093948 -0.022254333 -0.04551598 -0.012449425
0.023424672 -0.033983998 0.015694717 0.0277146 0.09864466 0.045545768 -0.019514222 -0.03572378
-0.05227476 -0.002424352 -0.04245199 0.028021714 -0.023408355 0.0045249243 0.0145036 -0.00653552
0.060953073 0.025646627 0.07496774 -0.026296396 -0.010033624 0.0076284762 -0.0096070785 -0.020332659
-0.04430278 0.028685529 0.013527476 0.03631942 0.025546858 0.04763915 0.021378191 0.002686948
-0.028795514 0.031267524 -0.08002607 -0.006000877 -0.047752377 -0.016916834 -0.05846978 0.0023290871
-0.043567643 -0.05296485 -0.082903184 0.044984907 0.05608735 0.046998564 -0.026952202 -0.017826002
-0.002646659 -0.01810052 -0.07036266 -0.012299954 0.06833059 0.023901198 0.018998774 0.01938716
-0.049086604 0.03540811 0.023130266 -0.06984679 0.0063481764 0.013850216 -0.03924192 -0.0021751502
-0.0007574647 0.04607545 -0.04355175 -0.10505127 0.06691048 0.023147156 0.033791915 -0.04978119
-0.035511088 0.01943128 0.024525665 0.056739476 0.054249227 -0.0022224616 0.019288803 -0.032255027
0.04435122 -0.028395956 0.059510916 -0.013251517 -0.07418057 -0.012688155 0.0008123179 0.08982348
